{
  "storage" : "model.espresso.weights",
  "properties" : {

  },
  "format_version" : 200,
  "layers" : [
    {
      "pad_r" : 0,
      "fused_relu" : 1,
      "fused_tanh" : 0,
      "pad_fill_mode" : 0,
      "pad_b" : 0,
      "pad_l" : 0,
      "top" : "relu_FeatureExtractor\/MobilenetV1\/MobilenetV1\/Conv2d_0\/Relu6:0",
      "blob_weights" : 3,
      "K" : 3,
      "blob_biases" : 1,
      "stride_x" : 2,
      "name" : "FeatureExtractor\/MobilenetV1\/MobilenetV1\/Conv2d_0\/BatchNorm\/batchnorm\/mul_1:0",
      "has_batch_norm" : 0,
      "type" : "convolution",
      "n_groups" : 1,
      "pad_t" : 0,
      "stride_y" : 2,
      "has_biases" : 1,
      "C" : 32,
      "bottom" : "Preprocessor__sub__0",
      "weights" : {

      },
      "Nx" : 3,
      "pad_mode" : 1,
      "pad_value" : 0,
      "Ny" : 3,
      "n_parallel" : 1
    },
    {
      "alpha" : -1,
      "bottom" : "relu_FeatureExtractor\/MobilenetV1\/MobilenetV1\/Conv2d_0\/Relu6:0",
      "weights" : {

      },
      "mode" : 6,
      "top" : "relu_FeatureExtractor\/MobilenetV1\/MobilenetV1\/Conv2d_0\/Relu6:0_neg",
      "type" : "activation",
      "name" : "relu_FeatureExtractor\/MobilenetV1\/MobilenetV1\/Conv2d_0\/Relu6:0_neg",
      "beta" : 0
    },
    {
      "alpha" : -6,
      "bottom" : "relu_FeatureExtractor\/MobilenetV1\/MobilenetV1\/Conv2d_0\/Relu6:0_neg",
      "operation" : 25,
      "weights" : {

      },
      "fused_relu" : 0,
      "top" : "relu_FeatureExtractor\/MobilenetV1\/MobilenetV1\/Conv2d_0\/Relu6:0_clip",
      "type" : "elementwise",
      "name" : "relu_FeatureExtractor\/MobilenetV1\/MobilenetV1\/Conv2d_0\/Relu6:0_clip",
      "beta" : 0
    },
    {
      "alpha" : -1,
      "bottom" : "relu_FeatureExtractor\/MobilenetV1\/MobilenetV1\/Conv2d_0\/Relu6:0_clip",
      "weights" : {

      },
      "mode" : 6,
      "top" : "FeatureExtractor\/MobilenetV1\/MobilenetV1\/Conv2d_0\/Relu6:0",
      "type" : "activation",
      "name" : "FeatureExtractor\/MobilenetV1\/MobilenetV1\/Conv2d_0\/Relu6:0",
      "beta" : 0
    },
    {
      "pad_r" : 0,
      "fused_relu" : 1,
      "fused_tanh" : 0,
      "pad_fill_mode" : 0,
      "pad_b" : 0,
      "pad_l" : 0,
      "top" : "relu_FeatureExtractor\/MobilenetV1\/MobilenetV1\/Conv2d_1_depthwise\/Relu6:0",
      "blob_weights" : 7,
      "K" : 32,
      "blob_biases" : 5,
      "name" : "FeatureExtractor\/MobilenetV1\/MobilenetV1\/Conv2d_1_depthwise\/depthwise:0",
      "has_batch_norm" : 0,
      "type" : "convolution",
      "n_groups" : 32,
      "pad_t" : 0,
      "has_biases" : 1,
      "C" : 32,
      "bottom" : "FeatureExtractor\/MobilenetV1\/MobilenetV1\/Conv2d_0\/Relu6:0",
      "weights" : {

      },
      "pad_mode" : 1,
      "Nx" : 3,
      "pad_value" : 0,
      "Ny" : 3,
      "n_parallel" : 1
    },
    {
      "alpha" : -1,
      "bottom" : "relu_FeatureExtractor\/MobilenetV1\/MobilenetV1\/Conv2d_1_depthwise\/Relu6:0",
      "weights" : {

      },
      "mode" : 6,
      "top" : "relu_FeatureExtractor\/MobilenetV1\/MobilenetV1\/Conv2d_1_depthwise\/Relu6:0_neg",
      "type" : "activation",
      "name" : "relu_FeatureExtractor\/MobilenetV1\/MobilenetV1\/Conv2d_1_depthwise\/Relu6:0_neg",
      "beta" : 0
    },
    {
      "alpha" : -6,
      "bottom" : "relu_FeatureExtractor\/MobilenetV1\/MobilenetV1\/Conv2d_1_depthwise\/Relu6:0_neg",
      "operation" : 25,
      "weights" : {

      },
      "fused_relu" : 0,
      "top" : "relu_FeatureExtractor\/MobilenetV1\/MobilenetV1\/Conv2d_1_depthwise\/Relu6:0_clip",
      "type" : "elementwise",
      "name" : "relu_FeatureExtractor\/MobilenetV1\/MobilenetV1\/Conv2d_1_depthwise\/Relu6:0_clip",
      "beta" : 0
    },
    {
      "alpha" : -1,
      "bottom" : "relu_FeatureExtractor\/MobilenetV1\/MobilenetV1\/Conv2d_1_depthwise\/Relu6:0_clip",
      "weights" : {

      },
      "mode" : 6,
      "top" : "FeatureExtractor\/MobilenetV1\/MobilenetV1\/Conv2d_1_depthwise\/Relu6:0",
      "type" : "activation",
      "name" : "FeatureExtractor\/MobilenetV1\/MobilenetV1\/Conv2d_1_depthwise\/Relu6:0",
      "beta" : 0
    },
    {
      "pad_r" : 0,
      "fused_relu" : 1,
      "fused_tanh" : 0,
      "pad_fill_mode" : 0,
      "pad_b" : 0,
      "pad_l" : 0,
      "top" : "relu_FeatureExtractor\/MobilenetV1\/MobilenetV1\/Conv2d_1_pointwise\/Relu6:0",
      "blob_weights" : 11,
      "K" : 32,
      "blob_biases" : 9,
      "name" : "FeatureExtractor\/MobilenetV1\/MobilenetV1\/Conv2d_1_pointwise\/BatchNorm\/batchnorm\/mul_1:0",
      "has_batch_norm" : 0,
      "type" : "convolution",
      "n_groups" : 1,
      "pad_t" : 0,
      "has_biases" : 1,
      "C" : 64,
      "bottom" : "FeatureExtractor\/MobilenetV1\/MobilenetV1\/Conv2d_1_depthwise\/Relu6:0",
      "weights" : {

      },
      "pad_mode" : 1,
      "Nx" : 1,
      "pad_value" : 0,
      "Ny" : 1,
      "n_parallel" : 1
    },
    {
      "alpha" : -1,
      "bottom" : "relu_FeatureExtractor\/MobilenetV1\/MobilenetV1\/Conv2d_1_pointwise\/Relu6:0",
      "weights" : {

      },
      "mode" : 6,
      "top" : "relu_FeatureExtractor\/MobilenetV1\/MobilenetV1\/Conv2d_1_pointwise\/Relu6:0_neg",
      "type" : "activation",
      "name" : "relu_FeatureExtractor\/MobilenetV1\/MobilenetV1\/Conv2d_1_pointwise\/Relu6:0_neg",
      "beta" : 0
    },
    {
      "alpha" : -6,
      "bottom" : "relu_FeatureExtractor\/MobilenetV1\/MobilenetV1\/Conv2d_1_pointwise\/Relu6:0_neg",
      "operation" : 25,
      "weights" : {

      },
      "fused_relu" : 0,
      "top" : "relu_FeatureExtractor\/MobilenetV1\/MobilenetV1\/Conv2d_1_pointwise\/Relu6:0_clip",
      "type" : "elementwise",
      "name" : "relu_FeatureExtractor\/MobilenetV1\/MobilenetV1\/Conv2d_1_pointwise\/Relu6:0_clip",
      "beta" : 0
    },
    {
      "alpha" : -1,
      "bottom" : "relu_FeatureExtractor\/MobilenetV1\/MobilenetV1\/Conv2d_1_pointwise\/Relu6:0_clip",
      "weights" : {

      },
      "mode" : 6,
      "top" : "FeatureExtractor\/MobilenetV1\/MobilenetV1\/Conv2d_1_pointwise\/Relu6:0",
      "type" : "activation",
      "name" : "FeatureExtractor\/MobilenetV1\/MobilenetV1\/Conv2d_1_pointwise\/Relu6:0",
      "beta" : 0
    },
    {
      "pad_r" : 0,
      "fused_relu" : 1,
      "fused_tanh" : 0,
      "pad_fill_mode" : 0,
      "pad_b" : 0,
      "pad_l" : 0,
      "top" : "relu_FeatureExtractor\/MobilenetV1\/MobilenetV1\/Conv2d_2_depthwise\/Relu6:0",
      "blob_weights" : 15,
      "K" : 64,
      "blob_biases" : 13,
      "stride_x" : 2,
      "name" : "FeatureExtractor\/MobilenetV1\/MobilenetV1\/Conv2d_2_depthwise\/depthwise:0",
      "has_batch_norm" : 0,
      "type" : "convolution",
      "n_groups" : 64,
      "pad_t" : 0,
      "stride_y" : 2,
      "has_biases" : 1,
      "C" : 64,
      "bottom" : "FeatureExtractor\/MobilenetV1\/MobilenetV1\/Conv2d_1_pointwise\/Relu6:0",
      "weights" : {

      },
      "Nx" : 3,
      "pad_mode" : 1,
      "pad_value" : 0,
      "Ny" : 3,
      "n_parallel" : 1
    },
    {
      "alpha" : -1,
      "bottom" : "relu_FeatureExtractor\/MobilenetV1\/MobilenetV1\/Conv2d_2_depthwise\/Relu6:0",
      "weights" : {

      },
      "mode" : 6,
      "top" : "relu_FeatureExtractor\/MobilenetV1\/MobilenetV1\/Conv2d_2_depthwise\/Relu6:0_neg",
      "type" : "activation",
      "name" : "relu_FeatureExtractor\/MobilenetV1\/MobilenetV1\/Conv2d_2_depthwise\/Relu6:0_neg",
      "beta" : 0
    },
    {
      "alpha" : -6,
      "bottom" : "relu_FeatureExtractor\/MobilenetV1\/MobilenetV1\/Conv2d_2_depthwise\/Relu6:0_neg",
      "operation" : 25,
      "weights" : {

      },
      "fused_relu" : 0,
      "top" : "relu_FeatureExtractor\/MobilenetV1\/MobilenetV1\/Conv2d_2_depthwise\/Relu6:0_clip",
      "type" : "elementwise",
      "name" : "relu_FeatureExtractor\/MobilenetV1\/MobilenetV1\/Conv2d_2_depthwise\/Relu6:0_clip",
      "beta" : 0
    },
    {
      "alpha" : -1,
      "bottom" : "relu_FeatureExtractor\/MobilenetV1\/MobilenetV1\/Conv2d_2_depthwise\/Relu6:0_clip",
      "weights" : {

      },
      "mode" : 6,
      "top" : "FeatureExtractor\/MobilenetV1\/MobilenetV1\/Conv2d_2_depthwise\/Relu6:0",
      "type" : "activation",
      "name" : "FeatureExtractor\/MobilenetV1\/MobilenetV1\/Conv2d_2_depthwise\/Relu6:0",
      "beta" : 0
    },
    {
      "pad_r" : 0,
      "fused_relu" : 1,
      "fused_tanh" : 0,
      "pad_fill_mode" : 0,
      "pad_b" : 0,
      "pad_l" : 0,
      "top" : "relu_FeatureExtractor\/MobilenetV1\/MobilenetV1\/Conv2d_2_pointwise\/Relu6:0",
      "blob_weights" : 19,
      "K" : 64,
      "blob_biases" : 17,
      "name" : "FeatureExtractor\/MobilenetV1\/MobilenetV1\/Conv2d_2_pointwise\/BatchNorm\/batchnorm\/mul_1:0",
      "has_batch_norm" : 0,
      "type" : "convolution",
      "n_groups" : 1,
      "pad_t" : 0,
      "has_biases" : 1,
      "C" : 128,
      "bottom" : "FeatureExtractor\/MobilenetV1\/MobilenetV1\/Conv2d_2_depthwise\/Relu6:0",
      "weights" : {

      },
      "pad_mode" : 1,
      "Nx" : 1,
      "pad_value" : 0,
      "Ny" : 1,
      "n_parallel" : 1
    },
    {
      "alpha" : -1,
      "bottom" : "relu_FeatureExtractor\/MobilenetV1\/MobilenetV1\/Conv2d_2_pointwise\/Relu6:0",
      "weights" : {

      },
      "mode" : 6,
      "top" : "relu_FeatureExtractor\/MobilenetV1\/MobilenetV1\/Conv2d_2_pointwise\/Relu6:0_neg",
      "type" : "activation",
      "name" : "relu_FeatureExtractor\/MobilenetV1\/MobilenetV1\/Conv2d_2_pointwise\/Relu6:0_neg",
      "beta" : 0
    },
    {
      "alpha" : -6,
      "bottom" : "relu_FeatureExtractor\/MobilenetV1\/MobilenetV1\/Conv2d_2_pointwise\/Relu6:0_neg",
      "operation" : 25,
      "weights" : {

      },
      "fused_relu" : 0,
      "top" : "relu_FeatureExtractor\/MobilenetV1\/MobilenetV1\/Conv2d_2_pointwise\/Relu6:0_clip",
      "type" : "elementwise",
      "name" : "relu_FeatureExtractor\/MobilenetV1\/MobilenetV1\/Conv2d_2_pointwise\/Relu6:0_clip",
      "beta" : 0
    },
    {
      "alpha" : -1,
      "bottom" : "relu_FeatureExtractor\/MobilenetV1\/MobilenetV1\/Conv2d_2_pointwise\/Relu6:0_clip",
      "weights" : {

      },
      "mode" : 6,
      "top" : "FeatureExtractor\/MobilenetV1\/MobilenetV1\/Conv2d_2_pointwise\/Relu6:0",
      "type" : "activation",
      "name" : "FeatureExtractor\/MobilenetV1\/MobilenetV1\/Conv2d_2_pointwise\/Relu6:0",
      "beta" : 0
    },
    {
      "pad_r" : 0,
      "fused_relu" : 1,
      "fused_tanh" : 0,
      "pad_fill_mode" : 0,
      "pad_b" : 0,
      "pad_l" : 0,
      "top" : "relu_FeatureExtractor\/MobilenetV1\/MobilenetV1\/Conv2d_3_depthwise\/Relu6:0",
      "blob_weights" : 23,
      "K" : 128,
      "blob_biases" : 21,
      "name" : "FeatureExtractor\/MobilenetV1\/MobilenetV1\/Conv2d_3_depthwise\/depthwise:0",
      "has_batch_norm" : 0,
      "type" : "convolution",
      "n_groups" : 128,
      "pad_t" : 0,
      "has_biases" : 1,
      "C" : 128,
      "bottom" : "FeatureExtractor\/MobilenetV1\/MobilenetV1\/Conv2d_2_pointwise\/Relu6:0",
      "weights" : {

      },
      "pad_mode" : 1,
      "Nx" : 3,
      "pad_value" : 0,
      "Ny" : 3,
      "n_parallel" : 1
    },
    {
      "alpha" : -1,
      "bottom" : "relu_FeatureExtractor\/MobilenetV1\/MobilenetV1\/Conv2d_3_depthwise\/Relu6:0",
      "weights" : {

      },
      "mode" : 6,
      "top" : "relu_FeatureExtractor\/MobilenetV1\/MobilenetV1\/Conv2d_3_depthwise\/Relu6:0_neg",
      "type" : "activation",
      "name" : "relu_FeatureExtractor\/MobilenetV1\/MobilenetV1\/Conv2d_3_depthwise\/Relu6:0_neg",
      "beta" : 0
    },
    {
      "alpha" : -6,
      "bottom" : "relu_FeatureExtractor\/MobilenetV1\/MobilenetV1\/Conv2d_3_depthwise\/Relu6:0_neg",
      "operation" : 25,
      "weights" : {

      },
      "fused_relu" : 0,
      "top" : "relu_FeatureExtractor\/MobilenetV1\/MobilenetV1\/Conv2d_3_depthwise\/Relu6:0_clip",
      "type" : "elementwise",
      "name" : "relu_FeatureExtractor\/MobilenetV1\/MobilenetV1\/Conv2d_3_depthwise\/Relu6:0_clip",
      "beta" : 0
    },
    {
      "alpha" : -1,
      "bottom" : "relu_FeatureExtractor\/MobilenetV1\/MobilenetV1\/Conv2d_3_depthwise\/Relu6:0_clip",
      "weights" : {

      },
      "mode" : 6,
      "top" : "FeatureExtractor\/MobilenetV1\/MobilenetV1\/Conv2d_3_depthwise\/Relu6:0",
      "type" : "activation",
      "name" : "FeatureExtractor\/MobilenetV1\/MobilenetV1\/Conv2d_3_depthwise\/Relu6:0",
      "beta" : 0
    },
    {
      "pad_r" : 0,
      "fused_relu" : 1,
      "fused_tanh" : 0,
      "pad_fill_mode" : 0,
      "pad_b" : 0,
      "pad_l" : 0,
      "top" : "relu_FeatureExtractor\/MobilenetV1\/MobilenetV1\/Conv2d_3_pointwise\/Relu6:0",
      "blob_weights" : 27,
      "K" : 128,
      "blob_biases" : 25,
      "name" : "FeatureExtractor\/MobilenetV1\/MobilenetV1\/Conv2d_3_pointwise\/BatchNorm\/batchnorm\/mul_1:0",
      "has_batch_norm" : 0,
      "type" : "convolution",
      "n_groups" : 1,
      "pad_t" : 0,
      "has_biases" : 1,
      "C" : 128,
      "bottom" : "FeatureExtractor\/MobilenetV1\/MobilenetV1\/Conv2d_3_depthwise\/Relu6:0",
      "weights" : {

      },
      "pad_mode" : 1,
      "Nx" : 1,
      "pad_value" : 0,
      "Ny" : 1,
      "n_parallel" : 1
    },
    {
      "alpha" : -1,
      "bottom" : "relu_FeatureExtractor\/MobilenetV1\/MobilenetV1\/Conv2d_3_pointwise\/Relu6:0",
      "weights" : {

      },
      "mode" : 6,
      "top" : "relu_FeatureExtractor\/MobilenetV1\/MobilenetV1\/Conv2d_3_pointwise\/Relu6:0_neg",
      "type" : "activation",
      "name" : "relu_FeatureExtractor\/MobilenetV1\/MobilenetV1\/Conv2d_3_pointwise\/Relu6:0_neg",
      "beta" : 0
    },
    {
      "alpha" : -6,
      "bottom" : "relu_FeatureExtractor\/MobilenetV1\/MobilenetV1\/Conv2d_3_pointwise\/Relu6:0_neg",
      "operation" : 25,
      "weights" : {

      },
      "fused_relu" : 0,
      "top" : "relu_FeatureExtractor\/MobilenetV1\/MobilenetV1\/Conv2d_3_pointwise\/Relu6:0_clip",
      "type" : "elementwise",
      "name" : "relu_FeatureExtractor\/MobilenetV1\/MobilenetV1\/Conv2d_3_pointwise\/Relu6:0_clip",
      "beta" : 0
    },
    {
      "alpha" : -1,
      "bottom" : "relu_FeatureExtractor\/MobilenetV1\/MobilenetV1\/Conv2d_3_pointwise\/Relu6:0_clip",
      "weights" : {

      },
      "mode" : 6,
      "top" : "FeatureExtractor\/MobilenetV1\/MobilenetV1\/Conv2d_3_pointwise\/Relu6:0",
      "type" : "activation",
      "name" : "FeatureExtractor\/MobilenetV1\/MobilenetV1\/Conv2d_3_pointwise\/Relu6:0",
      "beta" : 0
    },
    {
      "pad_r" : 0,
      "fused_relu" : 1,
      "fused_tanh" : 0,
      "pad_fill_mode" : 0,
      "pad_b" : 0,
      "pad_l" : 0,
      "top" : "relu_FeatureExtractor\/MobilenetV1\/MobilenetV1\/Conv2d_4_depthwise\/Relu6:0",
      "blob_weights" : 31,
      "K" : 128,
      "blob_biases" : 29,
      "stride_x" : 2,
      "name" : "FeatureExtractor\/MobilenetV1\/MobilenetV1\/Conv2d_4_depthwise\/depthwise:0",
      "has_batch_norm" : 0,
      "type" : "convolution",
      "n_groups" : 128,
      "pad_t" : 0,
      "stride_y" : 2,
      "has_biases" : 1,
      "C" : 128,
      "bottom" : "FeatureExtractor\/MobilenetV1\/MobilenetV1\/Conv2d_3_pointwise\/Relu6:0",
      "weights" : {

      },
      "Nx" : 3,
      "pad_mode" : 1,
      "pad_value" : 0,
      "Ny" : 3,
      "n_parallel" : 1
    },
    {
      "alpha" : -1,
      "bottom" : "relu_FeatureExtractor\/MobilenetV1\/MobilenetV1\/Conv2d_4_depthwise\/Relu6:0",
      "weights" : {

      },
      "mode" : 6,
      "top" : "relu_FeatureExtractor\/MobilenetV1\/MobilenetV1\/Conv2d_4_depthwise\/Relu6:0_neg",
      "type" : "activation",
      "name" : "relu_FeatureExtractor\/MobilenetV1\/MobilenetV1\/Conv2d_4_depthwise\/Relu6:0_neg",
      "beta" : 0
    },
    {
      "alpha" : -6,
      "bottom" : "relu_FeatureExtractor\/MobilenetV1\/MobilenetV1\/Conv2d_4_depthwise\/Relu6:0_neg",
      "operation" : 25,
      "weights" : {

      },
      "fused_relu" : 0,
      "top" : "relu_FeatureExtractor\/MobilenetV1\/MobilenetV1\/Conv2d_4_depthwise\/Relu6:0_clip",
      "type" : "elementwise",
      "name" : "relu_FeatureExtractor\/MobilenetV1\/MobilenetV1\/Conv2d_4_depthwise\/Relu6:0_clip",
      "beta" : 0
    },
    {
      "alpha" : -1,
      "bottom" : "relu_FeatureExtractor\/MobilenetV1\/MobilenetV1\/Conv2d_4_depthwise\/Relu6:0_clip",
      "weights" : {

      },
      "mode" : 6,
      "top" : "FeatureExtractor\/MobilenetV1\/MobilenetV1\/Conv2d_4_depthwise\/Relu6:0",
      "type" : "activation",
      "name" : "FeatureExtractor\/MobilenetV1\/MobilenetV1\/Conv2d_4_depthwise\/Relu6:0",
      "beta" : 0
    },
    {
      "pad_r" : 0,
      "fused_relu" : 1,
      "fused_tanh" : 0,
      "pad_fill_mode" : 0,
      "pad_b" : 0,
      "pad_l" : 0,
      "top" : "relu_FeatureExtractor\/MobilenetV1\/MobilenetV1\/Conv2d_4_pointwise\/Relu6:0",
      "blob_weights" : 35,
      "K" : 128,
      "blob_biases" : 33,
      "name" : "FeatureExtractor\/MobilenetV1\/MobilenetV1\/Conv2d_4_pointwise\/BatchNorm\/batchnorm\/mul_1:0",
      "has_batch_norm" : 0,
      "type" : "convolution",
      "n_groups" : 1,
      "pad_t" : 0,
      "has_biases" : 1,
      "C" : 256,
      "bottom" : "FeatureExtractor\/MobilenetV1\/MobilenetV1\/Conv2d_4_depthwise\/Relu6:0",
      "weights" : {

      },
      "pad_mode" : 1,
      "Nx" : 1,
      "pad_value" : 0,
      "Ny" : 1,
      "n_parallel" : 1
    },
    {
      "alpha" : -1,
      "bottom" : "relu_FeatureExtractor\/MobilenetV1\/MobilenetV1\/Conv2d_4_pointwise\/Relu6:0",
      "weights" : {

      },
      "mode" : 6,
      "top" : "relu_FeatureExtractor\/MobilenetV1\/MobilenetV1\/Conv2d_4_pointwise\/Relu6:0_neg",
      "type" : "activation",
      "name" : "relu_FeatureExtractor\/MobilenetV1\/MobilenetV1\/Conv2d_4_pointwise\/Relu6:0_neg",
      "beta" : 0
    },
    {
      "alpha" : -6,
      "bottom" : "relu_FeatureExtractor\/MobilenetV1\/MobilenetV1\/Conv2d_4_pointwise\/Relu6:0_neg",
      "operation" : 25,
      "weights" : {

      },
      "fused_relu" : 0,
      "top" : "relu_FeatureExtractor\/MobilenetV1\/MobilenetV1\/Conv2d_4_pointwise\/Relu6:0_clip",
      "type" : "elementwise",
      "name" : "relu_FeatureExtractor\/MobilenetV1\/MobilenetV1\/Conv2d_4_pointwise\/Relu6:0_clip",
      "beta" : 0
    },
    {
      "alpha" : -1,
      "bottom" : "relu_FeatureExtractor\/MobilenetV1\/MobilenetV1\/Conv2d_4_pointwise\/Relu6:0_clip",
      "weights" : {

      },
      "mode" : 6,
      "top" : "FeatureExtractor\/MobilenetV1\/MobilenetV1\/Conv2d_4_pointwise\/Relu6:0",
      "type" : "activation",
      "name" : "FeatureExtractor\/MobilenetV1\/MobilenetV1\/Conv2d_4_pointwise\/Relu6:0",
      "beta" : 0
    },
    {
      "pad_r" : 0,
      "fused_relu" : 1,
      "fused_tanh" : 0,
      "pad_fill_mode" : 0,
      "pad_b" : 0,
      "pad_l" : 0,
      "top" : "relu_FeatureExtractor\/MobilenetV1\/MobilenetV1\/Conv2d_5_depthwise\/Relu6:0",
      "blob_weights" : 39,
      "K" : 256,
      "blob_biases" : 37,
      "name" : "FeatureExtractor\/MobilenetV1\/MobilenetV1\/Conv2d_5_depthwise\/depthwise:0",
      "has_batch_norm" : 0,
      "type" : "convolution",
      "n_groups" : 256,
      "pad_t" : 0,
      "has_biases" : 1,
      "C" : 256,
      "bottom" : "FeatureExtractor\/MobilenetV1\/MobilenetV1\/Conv2d_4_pointwise\/Relu6:0",
      "weights" : {

      },
      "pad_mode" : 1,
      "Nx" : 3,
      "pad_value" : 0,
      "Ny" : 3,
      "n_parallel" : 1
    },
    {
      "alpha" : -1,
      "bottom" : "relu_FeatureExtractor\/MobilenetV1\/MobilenetV1\/Conv2d_5_depthwise\/Relu6:0",
      "weights" : {

      },
      "mode" : 6,
      "top" : "relu_FeatureExtractor\/MobilenetV1\/MobilenetV1\/Conv2d_5_depthwise\/Relu6:0_neg",
      "type" : "activation",
      "name" : "relu_FeatureExtractor\/MobilenetV1\/MobilenetV1\/Conv2d_5_depthwise\/Relu6:0_neg",
      "beta" : 0
    },
    {
      "alpha" : -6,
      "bottom" : "relu_FeatureExtractor\/MobilenetV1\/MobilenetV1\/Conv2d_5_depthwise\/Relu6:0_neg",
      "operation" : 25,
      "weights" : {

      },
      "fused_relu" : 0,
      "top" : "relu_FeatureExtractor\/MobilenetV1\/MobilenetV1\/Conv2d_5_depthwise\/Relu6:0_clip",
      "type" : "elementwise",
      "name" : "relu_FeatureExtractor\/MobilenetV1\/MobilenetV1\/Conv2d_5_depthwise\/Relu6:0_clip",
      "beta" : 0
    },
    {
      "alpha" : -1,
      "bottom" : "relu_FeatureExtractor\/MobilenetV1\/MobilenetV1\/Conv2d_5_depthwise\/Relu6:0_clip",
      "weights" : {

      },
      "mode" : 6,
      "top" : "FeatureExtractor\/MobilenetV1\/MobilenetV1\/Conv2d_5_depthwise\/Relu6:0",
      "type" : "activation",
      "name" : "FeatureExtractor\/MobilenetV1\/MobilenetV1\/Conv2d_5_depthwise\/Relu6:0",
      "beta" : 0
    },
    {
      "pad_r" : 0,
      "fused_relu" : 1,
      "fused_tanh" : 0,
      "pad_fill_mode" : 0,
      "pad_b" : 0,
      "pad_l" : 0,
      "top" : "relu_FeatureExtractor\/MobilenetV1\/MobilenetV1\/Conv2d_5_pointwise\/Relu6:0",
      "blob_weights" : 43,
      "K" : 256,
      "blob_biases" : 41,
      "name" : "FeatureExtractor\/MobilenetV1\/MobilenetV1\/Conv2d_5_pointwise\/BatchNorm\/batchnorm\/mul_1:0",
      "has_batch_norm" : 0,
      "type" : "convolution",
      "n_groups" : 1,
      "pad_t" : 0,
      "has_biases" : 1,
      "C" : 256,
      "bottom" : "FeatureExtractor\/MobilenetV1\/MobilenetV1\/Conv2d_5_depthwise\/Relu6:0",
      "weights" : {

      },
      "pad_mode" : 1,
      "Nx" : 1,
      "pad_value" : 0,
      "Ny" : 1,
      "n_parallel" : 1
    },
    {
      "alpha" : -1,
      "bottom" : "relu_FeatureExtractor\/MobilenetV1\/MobilenetV1\/Conv2d_5_pointwise\/Relu6:0",
      "weights" : {

      },
      "mode" : 6,
      "top" : "relu_FeatureExtractor\/MobilenetV1\/MobilenetV1\/Conv2d_5_pointwise\/Relu6:0_neg",
      "type" : "activation",
      "name" : "relu_FeatureExtractor\/MobilenetV1\/MobilenetV1\/Conv2d_5_pointwise\/Relu6:0_neg",
      "beta" : 0
    },
    {
      "alpha" : -6,
      "bottom" : "relu_FeatureExtractor\/MobilenetV1\/MobilenetV1\/Conv2d_5_pointwise\/Relu6:0_neg",
      "operation" : 25,
      "weights" : {

      },
      "fused_relu" : 0,
      "top" : "relu_FeatureExtractor\/MobilenetV1\/MobilenetV1\/Conv2d_5_pointwise\/Relu6:0_clip",
      "type" : "elementwise",
      "name" : "relu_FeatureExtractor\/MobilenetV1\/MobilenetV1\/Conv2d_5_pointwise\/Relu6:0_clip",
      "beta" : 0
    },
    {
      "alpha" : -1,
      "bottom" : "relu_FeatureExtractor\/MobilenetV1\/MobilenetV1\/Conv2d_5_pointwise\/Relu6:0_clip",
      "weights" : {

      },
      "mode" : 6,
      "top" : "FeatureExtractor\/MobilenetV1\/MobilenetV1\/Conv2d_5_pointwise\/Relu6:0",
      "type" : "activation",
      "name" : "FeatureExtractor\/MobilenetV1\/MobilenetV1\/Conv2d_5_pointwise\/Relu6:0",
      "beta" : 0
    },
    {
      "pad_r" : 0,
      "fused_relu" : 1,
      "fused_tanh" : 0,
      "pad_fill_mode" : 0,
      "pad_b" : 0,
      "pad_l" : 0,
      "top" : "relu_FeatureExtractor\/MobilenetV1\/MobilenetV1\/Conv2d_6_depthwise\/Relu6:0",
      "blob_weights" : 47,
      "K" : 256,
      "blob_biases" : 45,
      "stride_x" : 2,
      "name" : "FeatureExtractor\/MobilenetV1\/MobilenetV1\/Conv2d_6_depthwise\/depthwise:0",
      "has_batch_norm" : 0,
      "type" : "convolution",
      "n_groups" : 256,
      "pad_t" : 0,
      "stride_y" : 2,
      "has_biases" : 1,
      "C" : 256,
      "bottom" : "FeatureExtractor\/MobilenetV1\/MobilenetV1\/Conv2d_5_pointwise\/Relu6:0",
      "weights" : {

      },
      "Nx" : 3,
      "pad_mode" : 1,
      "pad_value" : 0,
      "Ny" : 3,
      "n_parallel" : 1
    },
    {
      "alpha" : -1,
      "bottom" : "relu_FeatureExtractor\/MobilenetV1\/MobilenetV1\/Conv2d_6_depthwise\/Relu6:0",
      "weights" : {

      },
      "mode" : 6,
      "top" : "relu_FeatureExtractor\/MobilenetV1\/MobilenetV1\/Conv2d_6_depthwise\/Relu6:0_neg",
      "type" : "activation",
      "name" : "relu_FeatureExtractor\/MobilenetV1\/MobilenetV1\/Conv2d_6_depthwise\/Relu6:0_neg",
      "beta" : 0
    },
    {
      "alpha" : -6,
      "bottom" : "relu_FeatureExtractor\/MobilenetV1\/MobilenetV1\/Conv2d_6_depthwise\/Relu6:0_neg",
      "operation" : 25,
      "weights" : {

      },
      "fused_relu" : 0,
      "top" : "relu_FeatureExtractor\/MobilenetV1\/MobilenetV1\/Conv2d_6_depthwise\/Relu6:0_clip",
      "type" : "elementwise",
      "name" : "relu_FeatureExtractor\/MobilenetV1\/MobilenetV1\/Conv2d_6_depthwise\/Relu6:0_clip",
      "beta" : 0
    },
    {
      "alpha" : -1,
      "bottom" : "relu_FeatureExtractor\/MobilenetV1\/MobilenetV1\/Conv2d_6_depthwise\/Relu6:0_clip",
      "weights" : {

      },
      "mode" : 6,
      "top" : "FeatureExtractor\/MobilenetV1\/MobilenetV1\/Conv2d_6_depthwise\/Relu6:0",
      "type" : "activation",
      "name" : "FeatureExtractor\/MobilenetV1\/MobilenetV1\/Conv2d_6_depthwise\/Relu6:0",
      "beta" : 0
    },
    {
      "pad_r" : 0,
      "fused_relu" : 1,
      "fused_tanh" : 0,
      "pad_fill_mode" : 0,
      "pad_b" : 0,
      "pad_l" : 0,
      "top" : "relu_FeatureExtractor\/MobilenetV1\/MobilenetV1\/Conv2d_6_pointwise\/Relu6:0",
      "blob_weights" : 51,
      "K" : 256,
      "blob_biases" : 49,
      "name" : "FeatureExtractor\/MobilenetV1\/MobilenetV1\/Conv2d_6_pointwise\/BatchNorm\/batchnorm\/mul_1:0",
      "has_batch_norm" : 0,
      "type" : "convolution",
      "n_groups" : 1,
      "pad_t" : 0,
      "has_biases" : 1,
      "C" : 512,
      "bottom" : "FeatureExtractor\/MobilenetV1\/MobilenetV1\/Conv2d_6_depthwise\/Relu6:0",
      "weights" : {

      },
      "pad_mode" : 1,
      "Nx" : 1,
      "pad_value" : 0,
      "Ny" : 1,
      "n_parallel" : 1
    },
    {
      "alpha" : -1,
      "bottom" : "relu_FeatureExtractor\/MobilenetV1\/MobilenetV1\/Conv2d_6_pointwise\/Relu6:0",
      "weights" : {

      },
      "mode" : 6,
      "top" : "relu_FeatureExtractor\/MobilenetV1\/MobilenetV1\/Conv2d_6_pointwise\/Relu6:0_neg",
      "type" : "activation",
      "name" : "relu_FeatureExtractor\/MobilenetV1\/MobilenetV1\/Conv2d_6_pointwise\/Relu6:0_neg",
      "beta" : 0
    },
    {
      "alpha" : -6,
      "bottom" : "relu_FeatureExtractor\/MobilenetV1\/MobilenetV1\/Conv2d_6_pointwise\/Relu6:0_neg",
      "operation" : 25,
      "weights" : {

      },
      "fused_relu" : 0,
      "top" : "relu_FeatureExtractor\/MobilenetV1\/MobilenetV1\/Conv2d_6_pointwise\/Relu6:0_clip",
      "type" : "elementwise",
      "name" : "relu_FeatureExtractor\/MobilenetV1\/MobilenetV1\/Conv2d_6_pointwise\/Relu6:0_clip",
      "beta" : 0
    },
    {
      "alpha" : -1,
      "bottom" : "relu_FeatureExtractor\/MobilenetV1\/MobilenetV1\/Conv2d_6_pointwise\/Relu6:0_clip",
      "weights" : {

      },
      "mode" : 6,
      "top" : "FeatureExtractor\/MobilenetV1\/MobilenetV1\/Conv2d_6_pointwise\/Relu6:0",
      "type" : "activation",
      "name" : "FeatureExtractor\/MobilenetV1\/MobilenetV1\/Conv2d_6_pointwise\/Relu6:0",
      "beta" : 0
    },
    {
      "pad_r" : 0,
      "fused_relu" : 1,
      "fused_tanh" : 0,
      "pad_fill_mode" : 0,
      "pad_b" : 0,
      "pad_l" : 0,
      "top" : "relu_FeatureExtractor\/MobilenetV1\/MobilenetV1\/Conv2d_7_depthwise\/Relu6:0",
      "blob_weights" : 55,
      "K" : 512,
      "blob_biases" : 53,
      "name" : "FeatureExtractor\/MobilenetV1\/MobilenetV1\/Conv2d_7_depthwise\/depthwise:0",
      "has_batch_norm" : 0,
      "type" : "convolution",
      "n_groups" : 512,
      "pad_t" : 0,
      "has_biases" : 1,
      "C" : 512,
      "bottom" : "FeatureExtractor\/MobilenetV1\/MobilenetV1\/Conv2d_6_pointwise\/Relu6:0",
      "weights" : {

      },
      "pad_mode" : 1,
      "Nx" : 3,
      "pad_value" : 0,
      "Ny" : 3,
      "n_parallel" : 1
    },
    {
      "alpha" : -1,
      "bottom" : "relu_FeatureExtractor\/MobilenetV1\/MobilenetV1\/Conv2d_7_depthwise\/Relu6:0",
      "weights" : {

      },
      "mode" : 6,
      "top" : "relu_FeatureExtractor\/MobilenetV1\/MobilenetV1\/Conv2d_7_depthwise\/Relu6:0_neg",
      "type" : "activation",
      "name" : "relu_FeatureExtractor\/MobilenetV1\/MobilenetV1\/Conv2d_7_depthwise\/Relu6:0_neg",
      "beta" : 0
    },
    {
      "alpha" : -6,
      "bottom" : "relu_FeatureExtractor\/MobilenetV1\/MobilenetV1\/Conv2d_7_depthwise\/Relu6:0_neg",
      "operation" : 25,
      "weights" : {

      },
      "fused_relu" : 0,
      "top" : "relu_FeatureExtractor\/MobilenetV1\/MobilenetV1\/Conv2d_7_depthwise\/Relu6:0_clip",
      "type" : "elementwise",
      "name" : "relu_FeatureExtractor\/MobilenetV1\/MobilenetV1\/Conv2d_7_depthwise\/Relu6:0_clip",
      "beta" : 0
    },
    {
      "alpha" : -1,
      "bottom" : "relu_FeatureExtractor\/MobilenetV1\/MobilenetV1\/Conv2d_7_depthwise\/Relu6:0_clip",
      "weights" : {

      },
      "mode" : 6,
      "top" : "FeatureExtractor\/MobilenetV1\/MobilenetV1\/Conv2d_7_depthwise\/Relu6:0",
      "type" : "activation",
      "name" : "FeatureExtractor\/MobilenetV1\/MobilenetV1\/Conv2d_7_depthwise\/Relu6:0",
      "beta" : 0
    },
    {
      "pad_r" : 0,
      "fused_relu" : 1,
      "fused_tanh" : 0,
      "pad_fill_mode" : 0,
      "pad_b" : 0,
      "pad_l" : 0,
      "top" : "relu_FeatureExtractor\/MobilenetV1\/MobilenetV1\/Conv2d_7_pointwise\/Relu6:0",
      "blob_weights" : 59,
      "K" : 512,
      "blob_biases" : 57,
      "name" : "FeatureExtractor\/MobilenetV1\/MobilenetV1\/Conv2d_7_pointwise\/BatchNorm\/batchnorm\/mul_1:0",
      "has_batch_norm" : 0,
      "type" : "convolution",
      "n_groups" : 1,
      "pad_t" : 0,
      "has_biases" : 1,
      "C" : 512,
      "bottom" : "FeatureExtractor\/MobilenetV1\/MobilenetV1\/Conv2d_7_depthwise\/Relu6:0",
      "weights" : {

      },
      "pad_mode" : 1,
      "Nx" : 1,
      "pad_value" : 0,
      "Ny" : 1,
      "n_parallel" : 1
    },
    {
      "alpha" : -1,
      "bottom" : "relu_FeatureExtractor\/MobilenetV1\/MobilenetV1\/Conv2d_7_pointwise\/Relu6:0",
      "weights" : {

      },
      "mode" : 6,
      "top" : "relu_FeatureExtractor\/MobilenetV1\/MobilenetV1\/Conv2d_7_pointwise\/Relu6:0_neg",
      "type" : "activation",
      "name" : "relu_FeatureExtractor\/MobilenetV1\/MobilenetV1\/Conv2d_7_pointwise\/Relu6:0_neg",
      "beta" : 0
    },
    {
      "alpha" : -6,
      "bottom" : "relu_FeatureExtractor\/MobilenetV1\/MobilenetV1\/Conv2d_7_pointwise\/Relu6:0_neg",
      "operation" : 25,
      "weights" : {

      },
      "fused_relu" : 0,
      "top" : "relu_FeatureExtractor\/MobilenetV1\/MobilenetV1\/Conv2d_7_pointwise\/Relu6:0_clip",
      "type" : "elementwise",
      "name" : "relu_FeatureExtractor\/MobilenetV1\/MobilenetV1\/Conv2d_7_pointwise\/Relu6:0_clip",
      "beta" : 0
    },
    {
      "alpha" : -1,
      "bottom" : "relu_FeatureExtractor\/MobilenetV1\/MobilenetV1\/Conv2d_7_pointwise\/Relu6:0_clip",
      "weights" : {

      },
      "mode" : 6,
      "top" : "FeatureExtractor\/MobilenetV1\/MobilenetV1\/Conv2d_7_pointwise\/Relu6:0",
      "type" : "activation",
      "name" : "FeatureExtractor\/MobilenetV1\/MobilenetV1\/Conv2d_7_pointwise\/Relu6:0",
      "beta" : 0
    },
    {
      "pad_r" : 0,
      "fused_relu" : 1,
      "fused_tanh" : 0,
      "pad_fill_mode" : 0,
      "pad_b" : 0,
      "pad_l" : 0,
      "top" : "relu_FeatureExtractor\/MobilenetV1\/MobilenetV1\/Conv2d_8_depthwise\/Relu6:0",
      "blob_weights" : 63,
      "K" : 512,
      "blob_biases" : 61,
      "name" : "FeatureExtractor\/MobilenetV1\/MobilenetV1\/Conv2d_8_depthwise\/depthwise:0",
      "has_batch_norm" : 0,
      "type" : "convolution",
      "n_groups" : 512,
      "pad_t" : 0,
      "has_biases" : 1,
      "C" : 512,
      "bottom" : "FeatureExtractor\/MobilenetV1\/MobilenetV1\/Conv2d_7_pointwise\/Relu6:0",
      "weights" : {

      },
      "pad_mode" : 1,
      "Nx" : 3,
      "pad_value" : 0,
      "Ny" : 3,
      "n_parallel" : 1
    },
    {
      "alpha" : -1,
      "bottom" : "relu_FeatureExtractor\/MobilenetV1\/MobilenetV1\/Conv2d_8_depthwise\/Relu6:0",
      "weights" : {

      },
      "mode" : 6,
      "top" : "relu_FeatureExtractor\/MobilenetV1\/MobilenetV1\/Conv2d_8_depthwise\/Relu6:0_neg",
      "type" : "activation",
      "name" : "relu_FeatureExtractor\/MobilenetV1\/MobilenetV1\/Conv2d_8_depthwise\/Relu6:0_neg",
      "beta" : 0
    },
    {
      "alpha" : -6,
      "bottom" : "relu_FeatureExtractor\/MobilenetV1\/MobilenetV1\/Conv2d_8_depthwise\/Relu6:0_neg",
      "operation" : 25,
      "weights" : {

      },
      "fused_relu" : 0,
      "top" : "relu_FeatureExtractor\/MobilenetV1\/MobilenetV1\/Conv2d_8_depthwise\/Relu6:0_clip",
      "type" : "elementwise",
      "name" : "relu_FeatureExtractor\/MobilenetV1\/MobilenetV1\/Conv2d_8_depthwise\/Relu6:0_clip",
      "beta" : 0
    },
    {
      "alpha" : -1,
      "bottom" : "relu_FeatureExtractor\/MobilenetV1\/MobilenetV1\/Conv2d_8_depthwise\/Relu6:0_clip",
      "weights" : {

      },
      "mode" : 6,
      "top" : "FeatureExtractor\/MobilenetV1\/MobilenetV1\/Conv2d_8_depthwise\/Relu6:0",
      "type" : "activation",
      "name" : "FeatureExtractor\/MobilenetV1\/MobilenetV1\/Conv2d_8_depthwise\/Relu6:0",
      "beta" : 0
    },
    {
      "pad_r" : 0,
      "fused_relu" : 1,
      "fused_tanh" : 0,
      "pad_fill_mode" : 0,
      "pad_b" : 0,
      "pad_l" : 0,
      "top" : "relu_FeatureExtractor\/MobilenetV1\/MobilenetV1\/Conv2d_8_pointwise\/Relu6:0",
      "blob_weights" : 67,
      "K" : 512,
      "blob_biases" : 65,
      "name" : "FeatureExtractor\/MobilenetV1\/MobilenetV1\/Conv2d_8_pointwise\/BatchNorm\/batchnorm\/mul_1:0",
      "has_batch_norm" : 0,
      "type" : "convolution",
      "n_groups" : 1,
      "pad_t" : 0,
      "has_biases" : 1,
      "C" : 512,
      "bottom" : "FeatureExtractor\/MobilenetV1\/MobilenetV1\/Conv2d_8_depthwise\/Relu6:0",
      "weights" : {

      },
      "pad_mode" : 1,
      "Nx" : 1,
      "pad_value" : 0,
      "Ny" : 1,
      "n_parallel" : 1
    },
    {
      "alpha" : -1,
      "bottom" : "relu_FeatureExtractor\/MobilenetV1\/MobilenetV1\/Conv2d_8_pointwise\/Relu6:0",
      "weights" : {

      },
      "mode" : 6,
      "top" : "relu_FeatureExtractor\/MobilenetV1\/MobilenetV1\/Conv2d_8_pointwise\/Relu6:0_neg",
      "type" : "activation",
      "name" : "relu_FeatureExtractor\/MobilenetV1\/MobilenetV1\/Conv2d_8_pointwise\/Relu6:0_neg",
      "beta" : 0
    },
    {
      "alpha" : -6,
      "bottom" : "relu_FeatureExtractor\/MobilenetV1\/MobilenetV1\/Conv2d_8_pointwise\/Relu6:0_neg",
      "operation" : 25,
      "weights" : {

      },
      "fused_relu" : 0,
      "top" : "relu_FeatureExtractor\/MobilenetV1\/MobilenetV1\/Conv2d_8_pointwise\/Relu6:0_clip",
      "type" : "elementwise",
      "name" : "relu_FeatureExtractor\/MobilenetV1\/MobilenetV1\/Conv2d_8_pointwise\/Relu6:0_clip",
      "beta" : 0
    },
    {
      "alpha" : -1,
      "bottom" : "relu_FeatureExtractor\/MobilenetV1\/MobilenetV1\/Conv2d_8_pointwise\/Relu6:0_clip",
      "weights" : {

      },
      "mode" : 6,
      "top" : "FeatureExtractor\/MobilenetV1\/MobilenetV1\/Conv2d_8_pointwise\/Relu6:0",
      "type" : "activation",
      "name" : "FeatureExtractor\/MobilenetV1\/MobilenetV1\/Conv2d_8_pointwise\/Relu6:0",
      "beta" : 0
    },
    {
      "pad_r" : 0,
      "fused_relu" : 1,
      "fused_tanh" : 0,
      "pad_fill_mode" : 0,
      "pad_b" : 0,
      "pad_l" : 0,
      "top" : "relu_FeatureExtractor\/MobilenetV1\/MobilenetV1\/Conv2d_9_depthwise\/Relu6:0",
      "blob_weights" : 71,
      "K" : 512,
      "blob_biases" : 69,
      "name" : "FeatureExtractor\/MobilenetV1\/MobilenetV1\/Conv2d_9_depthwise\/depthwise:0",
      "has_batch_norm" : 0,
      "type" : "convolution",
      "n_groups" : 512,
      "pad_t" : 0,
      "has_biases" : 1,
      "C" : 512,
      "bottom" : "FeatureExtractor\/MobilenetV1\/MobilenetV1\/Conv2d_8_pointwise\/Relu6:0",
      "weights" : {

      },
      "pad_mode" : 1,
      "Nx" : 3,
      "pad_value" : 0,
      "Ny" : 3,
      "n_parallel" : 1
    },
    {
      "alpha" : -1,
      "bottom" : "relu_FeatureExtractor\/MobilenetV1\/MobilenetV1\/Conv2d_9_depthwise\/Relu6:0",
      "weights" : {

      },
      "mode" : 6,
      "top" : "relu_FeatureExtractor\/MobilenetV1\/MobilenetV1\/Conv2d_9_depthwise\/Relu6:0_neg",
      "type" : "activation",
      "name" : "relu_FeatureExtractor\/MobilenetV1\/MobilenetV1\/Conv2d_9_depthwise\/Relu6:0_neg",
      "beta" : 0
    },
    {
      "alpha" : -6,
      "bottom" : "relu_FeatureExtractor\/MobilenetV1\/MobilenetV1\/Conv2d_9_depthwise\/Relu6:0_neg",
      "operation" : 25,
      "weights" : {

      },
      "fused_relu" : 0,
      "top" : "relu_FeatureExtractor\/MobilenetV1\/MobilenetV1\/Conv2d_9_depthwise\/Relu6:0_clip",
      "type" : "elementwise",
      "name" : "relu_FeatureExtractor\/MobilenetV1\/MobilenetV1\/Conv2d_9_depthwise\/Relu6:0_clip",
      "beta" : 0
    },
    {
      "alpha" : -1,
      "bottom" : "relu_FeatureExtractor\/MobilenetV1\/MobilenetV1\/Conv2d_9_depthwise\/Relu6:0_clip",
      "weights" : {

      },
      "mode" : 6,
      "top" : "FeatureExtractor\/MobilenetV1\/MobilenetV1\/Conv2d_9_depthwise\/Relu6:0",
      "type" : "activation",
      "name" : "FeatureExtractor\/MobilenetV1\/MobilenetV1\/Conv2d_9_depthwise\/Relu6:0",
      "beta" : 0
    },
    {
      "pad_r" : 0,
      "fused_relu" : 1,
      "fused_tanh" : 0,
      "pad_fill_mode" : 0,
      "pad_b" : 0,
      "pad_l" : 0,
      "top" : "relu_FeatureExtractor\/MobilenetV1\/MobilenetV1\/Conv2d_9_pointwise\/Relu6:0",
      "blob_weights" : 75,
      "K" : 512,
      "blob_biases" : 73,
      "name" : "FeatureExtractor\/MobilenetV1\/MobilenetV1\/Conv2d_9_pointwise\/BatchNorm\/batchnorm\/mul_1:0",
      "has_batch_norm" : 0,
      "type" : "convolution",
      "n_groups" : 1,
      "pad_t" : 0,
      "has_biases" : 1,
      "C" : 512,
      "bottom" : "FeatureExtractor\/MobilenetV1\/MobilenetV1\/Conv2d_9_depthwise\/Relu6:0",
      "weights" : {

      },
      "pad_mode" : 1,
      "Nx" : 1,
      "pad_value" : 0,
      "Ny" : 1,
      "n_parallel" : 1
    },
    {
      "alpha" : -1,
      "bottom" : "relu_FeatureExtractor\/MobilenetV1\/MobilenetV1\/Conv2d_9_pointwise\/Relu6:0",
      "weights" : {

      },
      "mode" : 6,
      "top" : "relu_FeatureExtractor\/MobilenetV1\/MobilenetV1\/Conv2d_9_pointwise\/Relu6:0_neg",
      "type" : "activation",
      "name" : "relu_FeatureExtractor\/MobilenetV1\/MobilenetV1\/Conv2d_9_pointwise\/Relu6:0_neg",
      "beta" : 0
    },
    {
      "alpha" : -6,
      "bottom" : "relu_FeatureExtractor\/MobilenetV1\/MobilenetV1\/Conv2d_9_pointwise\/Relu6:0_neg",
      "operation" : 25,
      "weights" : {

      },
      "fused_relu" : 0,
      "top" : "relu_FeatureExtractor\/MobilenetV1\/MobilenetV1\/Conv2d_9_pointwise\/Relu6:0_clip",
      "type" : "elementwise",
      "name" : "relu_FeatureExtractor\/MobilenetV1\/MobilenetV1\/Conv2d_9_pointwise\/Relu6:0_clip",
      "beta" : 0
    },
    {
      "alpha" : -1,
      "bottom" : "relu_FeatureExtractor\/MobilenetV1\/MobilenetV1\/Conv2d_9_pointwise\/Relu6:0_clip",
      "weights" : {

      },
      "mode" : 6,
      "top" : "FeatureExtractor\/MobilenetV1\/MobilenetV1\/Conv2d_9_pointwise\/Relu6:0",
      "type" : "activation",
      "name" : "FeatureExtractor\/MobilenetV1\/MobilenetV1\/Conv2d_9_pointwise\/Relu6:0",
      "beta" : 0
    },
    {
      "pad_r" : 0,
      "fused_relu" : 1,
      "fused_tanh" : 0,
      "pad_fill_mode" : 0,
      "pad_b" : 0,
      "pad_l" : 0,
      "top" : "relu_FeatureExtractor\/MobilenetV1\/MobilenetV1\/Conv2d_10_depthwise\/Relu6:0",
      "blob_weights" : 79,
      "K" : 512,
      "blob_biases" : 77,
      "name" : "FeatureExtractor\/MobilenetV1\/MobilenetV1\/Conv2d_10_depthwise\/depthwise:0",
      "has_batch_norm" : 0,
      "type" : "convolution",
      "n_groups" : 512,
      "pad_t" : 0,
      "has_biases" : 1,
      "C" : 512,
      "bottom" : "FeatureExtractor\/MobilenetV1\/MobilenetV1\/Conv2d_9_pointwise\/Relu6:0",
      "weights" : {

      },
      "pad_mode" : 1,
      "Nx" : 3,
      "pad_value" : 0,
      "Ny" : 3,
      "n_parallel" : 1
    },
    {
      "alpha" : -1,
      "bottom" : "relu_FeatureExtractor\/MobilenetV1\/MobilenetV1\/Conv2d_10_depthwise\/Relu6:0",
      "weights" : {

      },
      "mode" : 6,
      "top" : "relu_FeatureExtractor\/MobilenetV1\/MobilenetV1\/Conv2d_10_depthwise\/Relu6:0_neg",
      "type" : "activation",
      "name" : "relu_FeatureExtractor\/MobilenetV1\/MobilenetV1\/Conv2d_10_depthwise\/Relu6:0_neg",
      "beta" : 0
    },
    {
      "alpha" : -6,
      "bottom" : "relu_FeatureExtractor\/MobilenetV1\/MobilenetV1\/Conv2d_10_depthwise\/Relu6:0_neg",
      "operation" : 25,
      "weights" : {

      },
      "fused_relu" : 0,
      "top" : "relu_FeatureExtractor\/MobilenetV1\/MobilenetV1\/Conv2d_10_depthwise\/Relu6:0_clip",
      "type" : "elementwise",
      "name" : "relu_FeatureExtractor\/MobilenetV1\/MobilenetV1\/Conv2d_10_depthwise\/Relu6:0_clip",
      "beta" : 0
    },
    {
      "alpha" : -1,
      "bottom" : "relu_FeatureExtractor\/MobilenetV1\/MobilenetV1\/Conv2d_10_depthwise\/Relu6:0_clip",
      "weights" : {

      },
      "mode" : 6,
      "top" : "FeatureExtractor\/MobilenetV1\/MobilenetV1\/Conv2d_10_depthwise\/Relu6:0",
      "type" : "activation",
      "name" : "FeatureExtractor\/MobilenetV1\/MobilenetV1\/Conv2d_10_depthwise\/Relu6:0",
      "beta" : 0
    },
    {
      "pad_r" : 0,
      "fused_relu" : 1,
      "fused_tanh" : 0,
      "pad_fill_mode" : 0,
      "pad_b" : 0,
      "pad_l" : 0,
      "top" : "relu_FeatureExtractor\/MobilenetV1\/MobilenetV1\/Conv2d_10_pointwise\/Relu6:0",
      "blob_weights" : 83,
      "K" : 512,
      "blob_biases" : 81,
      "name" : "FeatureExtractor\/MobilenetV1\/MobilenetV1\/Conv2d_10_pointwise\/BatchNorm\/batchnorm\/mul_1:0",
      "has_batch_norm" : 0,
      "type" : "convolution",
      "n_groups" : 1,
      "pad_t" : 0,
      "has_biases" : 1,
      "C" : 512,
      "bottom" : "FeatureExtractor\/MobilenetV1\/MobilenetV1\/Conv2d_10_depthwise\/Relu6:0",
      "weights" : {

      },
      "pad_mode" : 1,
      "Nx" : 1,
      "pad_value" : 0,
      "Ny" : 1,
      "n_parallel" : 1
    },
    {
      "alpha" : -1,
      "bottom" : "relu_FeatureExtractor\/MobilenetV1\/MobilenetV1\/Conv2d_10_pointwise\/Relu6:0",
      "weights" : {

      },
      "mode" : 6,
      "top" : "relu_FeatureExtractor\/MobilenetV1\/MobilenetV1\/Conv2d_10_pointwise\/Relu6:0_neg",
      "type" : "activation",
      "name" : "relu_FeatureExtractor\/MobilenetV1\/MobilenetV1\/Conv2d_10_pointwise\/Relu6:0_neg",
      "beta" : 0
    },
    {
      "alpha" : -6,
      "bottom" : "relu_FeatureExtractor\/MobilenetV1\/MobilenetV1\/Conv2d_10_pointwise\/Relu6:0_neg",
      "operation" : 25,
      "weights" : {

      },
      "fused_relu" : 0,
      "top" : "relu_FeatureExtractor\/MobilenetV1\/MobilenetV1\/Conv2d_10_pointwise\/Relu6:0_clip",
      "type" : "elementwise",
      "name" : "relu_FeatureExtractor\/MobilenetV1\/MobilenetV1\/Conv2d_10_pointwise\/Relu6:0_clip",
      "beta" : 0
    },
    {
      "alpha" : -1,
      "bottom" : "relu_FeatureExtractor\/MobilenetV1\/MobilenetV1\/Conv2d_10_pointwise\/Relu6:0_clip",
      "weights" : {

      },
      "mode" : 6,
      "top" : "FeatureExtractor\/MobilenetV1\/MobilenetV1\/Conv2d_10_pointwise\/Relu6:0",
      "type" : "activation",
      "name" : "FeatureExtractor\/MobilenetV1\/MobilenetV1\/Conv2d_10_pointwise\/Relu6:0",
      "beta" : 0
    },
    {
      "pad_r" : 0,
      "fused_relu" : 1,
      "fused_tanh" : 0,
      "pad_fill_mode" : 0,
      "pad_b" : 0,
      "pad_l" : 0,
      "top" : "relu_FeatureExtractor\/MobilenetV1\/MobilenetV1\/Conv2d_11_depthwise\/Relu6:0",
      "blob_weights" : 87,
      "K" : 512,
      "blob_biases" : 85,
      "name" : "FeatureExtractor\/MobilenetV1\/MobilenetV1\/Conv2d_11_depthwise\/depthwise:0",
      "has_batch_norm" : 0,
      "type" : "convolution",
      "n_groups" : 512,
      "pad_t" : 0,
      "has_biases" : 1,
      "C" : 512,
      "bottom" : "FeatureExtractor\/MobilenetV1\/MobilenetV1\/Conv2d_10_pointwise\/Relu6:0",
      "weights" : {

      },
      "pad_mode" : 1,
      "Nx" : 3,
      "pad_value" : 0,
      "Ny" : 3,
      "n_parallel" : 1
    },
    {
      "alpha" : -1,
      "bottom" : "relu_FeatureExtractor\/MobilenetV1\/MobilenetV1\/Conv2d_11_depthwise\/Relu6:0",
      "weights" : {

      },
      "mode" : 6,
      "top" : "relu_FeatureExtractor\/MobilenetV1\/MobilenetV1\/Conv2d_11_depthwise\/Relu6:0_neg",
      "type" : "activation",
      "name" : "relu_FeatureExtractor\/MobilenetV1\/MobilenetV1\/Conv2d_11_depthwise\/Relu6:0_neg",
      "beta" : 0
    },
    {
      "alpha" : -6,
      "bottom" : "relu_FeatureExtractor\/MobilenetV1\/MobilenetV1\/Conv2d_11_depthwise\/Relu6:0_neg",
      "operation" : 25,
      "weights" : {

      },
      "fused_relu" : 0,
      "top" : "relu_FeatureExtractor\/MobilenetV1\/MobilenetV1\/Conv2d_11_depthwise\/Relu6:0_clip",
      "type" : "elementwise",
      "name" : "relu_FeatureExtractor\/MobilenetV1\/MobilenetV1\/Conv2d_11_depthwise\/Relu6:0_clip",
      "beta" : 0
    },
    {
      "alpha" : -1,
      "bottom" : "relu_FeatureExtractor\/MobilenetV1\/MobilenetV1\/Conv2d_11_depthwise\/Relu6:0_clip",
      "weights" : {

      },
      "mode" : 6,
      "top" : "FeatureExtractor\/MobilenetV1\/MobilenetV1\/Conv2d_11_depthwise\/Relu6:0",
      "type" : "activation",
      "name" : "FeatureExtractor\/MobilenetV1\/MobilenetV1\/Conv2d_11_depthwise\/Relu6:0",
      "beta" : 0
    },
    {
      "pad_r" : 0,
      "fused_relu" : 1,
      "fused_tanh" : 0,
      "pad_fill_mode" : 0,
      "pad_b" : 0,
      "pad_l" : 0,
      "top" : "relu_FeatureExtractor\/MobilenetV1\/MobilenetV1\/Conv2d_11_pointwise\/Relu6:0",
      "blob_weights" : 91,
      "K" : 512,
      "blob_biases" : 89,
      "name" : "FeatureExtractor\/MobilenetV1\/MobilenetV1\/Conv2d_11_pointwise\/BatchNorm\/batchnorm\/mul_1:0",
      "has_batch_norm" : 0,
      "type" : "convolution",
      "n_groups" : 1,
      "pad_t" : 0,
      "has_biases" : 1,
      "C" : 512,
      "bottom" : "FeatureExtractor\/MobilenetV1\/MobilenetV1\/Conv2d_11_depthwise\/Relu6:0",
      "weights" : {

      },
      "pad_mode" : 1,
      "Nx" : 1,
      "pad_value" : 0,
      "Ny" : 1,
      "n_parallel" : 1
    },
    {
      "alpha" : -1,
      "bottom" : "relu_FeatureExtractor\/MobilenetV1\/MobilenetV1\/Conv2d_11_pointwise\/Relu6:0",
      "weights" : {

      },
      "mode" : 6,
      "top" : "relu_FeatureExtractor\/MobilenetV1\/MobilenetV1\/Conv2d_11_pointwise\/Relu6:0_neg",
      "type" : "activation",
      "name" : "relu_FeatureExtractor\/MobilenetV1\/MobilenetV1\/Conv2d_11_pointwise\/Relu6:0_neg",
      "beta" : 0
    },
    {
      "alpha" : -6,
      "bottom" : "relu_FeatureExtractor\/MobilenetV1\/MobilenetV1\/Conv2d_11_pointwise\/Relu6:0_neg",
      "operation" : 25,
      "weights" : {

      },
      "fused_relu" : 0,
      "top" : "relu_FeatureExtractor\/MobilenetV1\/MobilenetV1\/Conv2d_11_pointwise\/Relu6:0_clip",
      "type" : "elementwise",
      "name" : "relu_FeatureExtractor\/MobilenetV1\/MobilenetV1\/Conv2d_11_pointwise\/Relu6:0_clip",
      "beta" : 0
    },
    {
      "alpha" : -1,
      "bottom" : "relu_FeatureExtractor\/MobilenetV1\/MobilenetV1\/Conv2d_11_pointwise\/Relu6:0_clip",
      "weights" : {

      },
      "mode" : 6,
      "top" : "FeatureExtractor\/MobilenetV1\/MobilenetV1\/Conv2d_11_pointwise\/Relu6:0",
      "type" : "activation",
      "name" : "FeatureExtractor\/MobilenetV1\/MobilenetV1\/Conv2d_11_pointwise\/Relu6:0",
      "beta" : 0
    },
    {
      "pad_r" : 0,
      "fused_relu" : 0,
      "fused_tanh" : 0,
      "pad_fill_mode" : 0,
      "pad_b" : 0,
      "pad_l" : 0,
      "top" : "BoxPredictor_0\/ClassPredictor\/BiasAdd:0",
      "blob_weights" : 95,
      "K" : 512,
      "blob_biases" : 93,
      "name" : "BoxPredictor_0\/ClassPredictor\/convolution:0",
      "has_batch_norm" : 0,
      "type" : "convolution",
      "n_groups" : 1,
      "pad_t" : 0,
      "has_biases" : 1,
      "C" : 273,
      "bottom" : "FeatureExtractor\/MobilenetV1\/MobilenetV1\/Conv2d_11_pointwise\/Relu6:0",
      "weights" : {

      },
      "pad_mode" : 1,
      "Nx" : 1,
      "pad_value" : 0,
      "Ny" : 1,
      "n_parallel" : 1
    },
    {
      "name" : "BoxPredictor_0\/Reshape_1:0",
      "bottom" : "BoxPredictor_0\/ClassPredictor\/BiasAdd:0",
      "dst_n" : 0,
      "mode" : 1,
      "dst_seq" : 1,
      "dst_k" : 91,
      "weights" : {

      },
      "top" : "BoxPredictor_0\/Reshape_1:0",
      "dst_h" : 1,
      "dst_w" : 1083,
      "type" : "reshape"
    },
    {
      "pad_r" : 0,
      "fused_relu" : 0,
      "fused_tanh" : 0,
      "pad_fill_mode" : 0,
      "pad_b" : 0,
      "pad_l" : 0,
      "top" : "BoxPredictor_0\/BoxEncodingPredictor\/BiasAdd:0",
      "blob_weights" : 99,
      "K" : 512,
      "blob_biases" : 97,
      "name" : "BoxPredictor_0\/BoxEncodingPredictor\/convolution:0",
      "has_batch_norm" : 0,
      "type" : "convolution",
      "n_groups" : 1,
      "pad_t" : 0,
      "has_biases" : 1,
      "C" : 12,
      "bottom" : "FeatureExtractor\/MobilenetV1\/MobilenetV1\/Conv2d_11_pointwise\/Relu6:0",
      "weights" : {

      },
      "pad_mode" : 1,
      "Nx" : 1,
      "pad_value" : 0,
      "Ny" : 1,
      "n_parallel" : 1
    },
    {
      "name" : "BoxPredictor_0\/Reshape:0",
      "bottom" : "BoxPredictor_0\/BoxEncodingPredictor\/BiasAdd:0",
      "dst_n" : 0,
      "mode" : 1,
      "dst_seq" : 1,
      "dst_k" : 4,
      "weights" : {

      },
      "top" : "BoxPredictor_0\/Reshape:0",
      "dst_h" : 1,
      "dst_w" : 1083,
      "type" : "reshape"
    },
    {
      "pad_r" : 0,
      "fused_relu" : 1,
      "fused_tanh" : 0,
      "pad_fill_mode" : 0,
      "pad_b" : 0,
      "pad_l" : 0,
      "top" : "relu_FeatureExtractor\/MobilenetV1\/MobilenetV1\/Conv2d_12_depthwise\/Relu6:0",
      "blob_weights" : 103,
      "K" : 512,
      "blob_biases" : 101,
      "stride_x" : 2,
      "name" : "FeatureExtractor\/MobilenetV1\/MobilenetV1\/Conv2d_12_depthwise\/depthwise:0",
      "has_batch_norm" : 0,
      "type" : "convolution",
      "n_groups" : 512,
      "pad_t" : 0,
      "stride_y" : 2,
      "has_biases" : 1,
      "C" : 512,
      "bottom" : "FeatureExtractor\/MobilenetV1\/MobilenetV1\/Conv2d_11_pointwise\/Relu6:0",
      "weights" : {

      },
      "Nx" : 3,
      "pad_mode" : 1,
      "pad_value" : 0,
      "Ny" : 3,
      "n_parallel" : 1
    },
    {
      "alpha" : -1,
      "bottom" : "relu_FeatureExtractor\/MobilenetV1\/MobilenetV1\/Conv2d_12_depthwise\/Relu6:0",
      "weights" : {

      },
      "mode" : 6,
      "top" : "relu_FeatureExtractor\/MobilenetV1\/MobilenetV1\/Conv2d_12_depthwise\/Relu6:0_neg",
      "type" : "activation",
      "name" : "relu_FeatureExtractor\/MobilenetV1\/MobilenetV1\/Conv2d_12_depthwise\/Relu6:0_neg",
      "beta" : 0
    },
    {
      "alpha" : -6,
      "bottom" : "relu_FeatureExtractor\/MobilenetV1\/MobilenetV1\/Conv2d_12_depthwise\/Relu6:0_neg",
      "operation" : 25,
      "weights" : {

      },
      "fused_relu" : 0,
      "top" : "relu_FeatureExtractor\/MobilenetV1\/MobilenetV1\/Conv2d_12_depthwise\/Relu6:0_clip",
      "type" : "elementwise",
      "name" : "relu_FeatureExtractor\/MobilenetV1\/MobilenetV1\/Conv2d_12_depthwise\/Relu6:0_clip",
      "beta" : 0
    },
    {
      "alpha" : -1,
      "bottom" : "relu_FeatureExtractor\/MobilenetV1\/MobilenetV1\/Conv2d_12_depthwise\/Relu6:0_clip",
      "weights" : {

      },
      "mode" : 6,
      "top" : "FeatureExtractor\/MobilenetV1\/MobilenetV1\/Conv2d_12_depthwise\/Relu6:0",
      "type" : "activation",
      "name" : "FeatureExtractor\/MobilenetV1\/MobilenetV1\/Conv2d_12_depthwise\/Relu6:0",
      "beta" : 0
    },
    {
      "pad_r" : 0,
      "fused_relu" : 1,
      "fused_tanh" : 0,
      "pad_fill_mode" : 0,
      "pad_b" : 0,
      "pad_l" : 0,
      "top" : "relu_FeatureExtractor\/MobilenetV1\/MobilenetV1\/Conv2d_12_pointwise\/Relu6:0",
      "blob_weights" : 107,
      "K" : 512,
      "blob_biases" : 105,
      "name" : "FeatureExtractor\/MobilenetV1\/MobilenetV1\/Conv2d_12_pointwise\/BatchNorm\/batchnorm\/mul_1:0",
      "has_batch_norm" : 0,
      "type" : "convolution",
      "n_groups" : 1,
      "pad_t" : 0,
      "has_biases" : 1,
      "C" : 1024,
      "bottom" : "FeatureExtractor\/MobilenetV1\/MobilenetV1\/Conv2d_12_depthwise\/Relu6:0",
      "weights" : {

      },
      "pad_mode" : 1,
      "Nx" : 1,
      "pad_value" : 0,
      "Ny" : 1,
      "n_parallel" : 1
    },
    {
      "alpha" : -1,
      "bottom" : "relu_FeatureExtractor\/MobilenetV1\/MobilenetV1\/Conv2d_12_pointwise\/Relu6:0",
      "weights" : {

      },
      "mode" : 6,
      "top" : "relu_FeatureExtractor\/MobilenetV1\/MobilenetV1\/Conv2d_12_pointwise\/Relu6:0_neg",
      "type" : "activation",
      "name" : "relu_FeatureExtractor\/MobilenetV1\/MobilenetV1\/Conv2d_12_pointwise\/Relu6:0_neg",
      "beta" : 0
    },
    {
      "alpha" : -6,
      "bottom" : "relu_FeatureExtractor\/MobilenetV1\/MobilenetV1\/Conv2d_12_pointwise\/Relu6:0_neg",
      "operation" : 25,
      "weights" : {

      },
      "fused_relu" : 0,
      "top" : "relu_FeatureExtractor\/MobilenetV1\/MobilenetV1\/Conv2d_12_pointwise\/Relu6:0_clip",
      "type" : "elementwise",
      "name" : "relu_FeatureExtractor\/MobilenetV1\/MobilenetV1\/Conv2d_12_pointwise\/Relu6:0_clip",
      "beta" : 0
    },
    {
      "alpha" : -1,
      "bottom" : "relu_FeatureExtractor\/MobilenetV1\/MobilenetV1\/Conv2d_12_pointwise\/Relu6:0_clip",
      "weights" : {

      },
      "mode" : 6,
      "top" : "FeatureExtractor\/MobilenetV1\/MobilenetV1\/Conv2d_12_pointwise\/Relu6:0",
      "type" : "activation",
      "name" : "FeatureExtractor\/MobilenetV1\/MobilenetV1\/Conv2d_12_pointwise\/Relu6:0",
      "beta" : 0
    },
    {
      "pad_r" : 0,
      "fused_relu" : 1,
      "fused_tanh" : 0,
      "pad_fill_mode" : 0,
      "pad_b" : 0,
      "pad_l" : 0,
      "top" : "relu_FeatureExtractor\/MobilenetV1\/MobilenetV1\/Conv2d_13_depthwise\/Relu6:0",
      "blob_weights" : 111,
      "K" : 1024,
      "blob_biases" : 109,
      "name" : "FeatureExtractor\/MobilenetV1\/MobilenetV1\/Conv2d_13_depthwise\/depthwise:0",
      "has_batch_norm" : 0,
      "type" : "convolution",
      "n_groups" : 1024,
      "pad_t" : 0,
      "has_biases" : 1,
      "C" : 1024,
      "bottom" : "FeatureExtractor\/MobilenetV1\/MobilenetV1\/Conv2d_12_pointwise\/Relu6:0",
      "weights" : {

      },
      "pad_mode" : 1,
      "Nx" : 3,
      "pad_value" : 0,
      "Ny" : 3,
      "n_parallel" : 1
    },
    {
      "alpha" : -1,
      "bottom" : "relu_FeatureExtractor\/MobilenetV1\/MobilenetV1\/Conv2d_13_depthwise\/Relu6:0",
      "weights" : {

      },
      "mode" : 6,
      "top" : "relu_FeatureExtractor\/MobilenetV1\/MobilenetV1\/Conv2d_13_depthwise\/Relu6:0_neg",
      "type" : "activation",
      "name" : "relu_FeatureExtractor\/MobilenetV1\/MobilenetV1\/Conv2d_13_depthwise\/Relu6:0_neg",
      "beta" : 0
    },
    {
      "alpha" : -6,
      "bottom" : "relu_FeatureExtractor\/MobilenetV1\/MobilenetV1\/Conv2d_13_depthwise\/Relu6:0_neg",
      "operation" : 25,
      "weights" : {

      },
      "fused_relu" : 0,
      "top" : "relu_FeatureExtractor\/MobilenetV1\/MobilenetV1\/Conv2d_13_depthwise\/Relu6:0_clip",
      "type" : "elementwise",
      "name" : "relu_FeatureExtractor\/MobilenetV1\/MobilenetV1\/Conv2d_13_depthwise\/Relu6:0_clip",
      "beta" : 0
    },
    {
      "alpha" : -1,
      "bottom" : "relu_FeatureExtractor\/MobilenetV1\/MobilenetV1\/Conv2d_13_depthwise\/Relu6:0_clip",
      "weights" : {

      },
      "mode" : 6,
      "top" : "FeatureExtractor\/MobilenetV1\/MobilenetV1\/Conv2d_13_depthwise\/Relu6:0",
      "type" : "activation",
      "name" : "FeatureExtractor\/MobilenetV1\/MobilenetV1\/Conv2d_13_depthwise\/Relu6:0",
      "beta" : 0
    },
    {
      "pad_r" : 0,
      "fused_relu" : 1,
      "fused_tanh" : 0,
      "pad_fill_mode" : 0,
      "pad_b" : 0,
      "pad_l" : 0,
      "top" : "relu_FeatureExtractor\/MobilenetV1\/MobilenetV1\/Conv2d_13_pointwise\/Relu6:0",
      "blob_weights" : 115,
      "K" : 1024,
      "blob_biases" : 113,
      "name" : "FeatureExtractor\/MobilenetV1\/MobilenetV1\/Conv2d_13_pointwise\/BatchNorm\/batchnorm\/mul_1:0",
      "has_batch_norm" : 0,
      "type" : "convolution",
      "n_groups" : 1,
      "pad_t" : 0,
      "has_biases" : 1,
      "C" : 1024,
      "bottom" : "FeatureExtractor\/MobilenetV1\/MobilenetV1\/Conv2d_13_depthwise\/Relu6:0",
      "weights" : {

      },
      "pad_mode" : 1,
      "Nx" : 1,
      "pad_value" : 0,
      "Ny" : 1,
      "n_parallel" : 1
    },
    {
      "alpha" : -1,
      "bottom" : "relu_FeatureExtractor\/MobilenetV1\/MobilenetV1\/Conv2d_13_pointwise\/Relu6:0",
      "weights" : {

      },
      "mode" : 6,
      "top" : "relu_FeatureExtractor\/MobilenetV1\/MobilenetV1\/Conv2d_13_pointwise\/Relu6:0_neg",
      "type" : "activation",
      "name" : "relu_FeatureExtractor\/MobilenetV1\/MobilenetV1\/Conv2d_13_pointwise\/Relu6:0_neg",
      "beta" : 0
    },
    {
      "alpha" : -6,
      "bottom" : "relu_FeatureExtractor\/MobilenetV1\/MobilenetV1\/Conv2d_13_pointwise\/Relu6:0_neg",
      "operation" : 25,
      "weights" : {

      },
      "fused_relu" : 0,
      "top" : "relu_FeatureExtractor\/MobilenetV1\/MobilenetV1\/Conv2d_13_pointwise\/Relu6:0_clip",
      "type" : "elementwise",
      "name" : "relu_FeatureExtractor\/MobilenetV1\/MobilenetV1\/Conv2d_13_pointwise\/Relu6:0_clip",
      "beta" : 0
    },
    {
      "alpha" : -1,
      "bottom" : "relu_FeatureExtractor\/MobilenetV1\/MobilenetV1\/Conv2d_13_pointwise\/Relu6:0_clip",
      "weights" : {

      },
      "mode" : 6,
      "top" : "FeatureExtractor\/MobilenetV1\/MobilenetV1\/Conv2d_13_pointwise\/Relu6:0",
      "type" : "activation",
      "name" : "FeatureExtractor\/MobilenetV1\/MobilenetV1\/Conv2d_13_pointwise\/Relu6:0",
      "beta" : 0
    },
    {
      "pad_r" : 0,
      "fused_relu" : 0,
      "fused_tanh" : 0,
      "pad_fill_mode" : 0,
      "pad_b" : 0,
      "pad_l" : 0,
      "top" : "BoxPredictor_1\/ClassPredictor\/BiasAdd:0",
      "blob_weights" : 119,
      "K" : 1024,
      "blob_biases" : 117,
      "name" : "BoxPredictor_1\/ClassPredictor\/convolution:0",
      "has_batch_norm" : 0,
      "type" : "convolution",
      "n_groups" : 1,
      "pad_t" : 0,
      "has_biases" : 1,
      "C" : 546,
      "bottom" : "FeatureExtractor\/MobilenetV1\/MobilenetV1\/Conv2d_13_pointwise\/Relu6:0",
      "weights" : {

      },
      "pad_mode" : 1,
      "Nx" : 1,
      "pad_value" : 0,
      "Ny" : 1,
      "n_parallel" : 1
    },
    {
      "name" : "BoxPredictor_1\/Reshape_1:0",
      "bottom" : "BoxPredictor_1\/ClassPredictor\/BiasAdd:0",
      "dst_n" : 0,
      "mode" : 1,
      "dst_seq" : 1,
      "dst_k" : 91,
      "weights" : {

      },
      "top" : "BoxPredictor_1\/Reshape_1:0",
      "dst_h" : 1,
      "dst_w" : 600,
      "type" : "reshape"
    },
    {
      "pad_r" : 0,
      "fused_relu" : 0,
      "fused_tanh" : 0,
      "pad_fill_mode" : 0,
      "pad_b" : 0,
      "pad_l" : 0,
      "top" : "BoxPredictor_1\/BoxEncodingPredictor\/BiasAdd:0",
      "blob_weights" : 123,
      "K" : 1024,
      "blob_biases" : 121,
      "name" : "BoxPredictor_1\/BoxEncodingPredictor\/convolution:0",
      "has_batch_norm" : 0,
      "type" : "convolution",
      "n_groups" : 1,
      "pad_t" : 0,
      "has_biases" : 1,
      "C" : 24,
      "bottom" : "FeatureExtractor\/MobilenetV1\/MobilenetV1\/Conv2d_13_pointwise\/Relu6:0",
      "weights" : {

      },
      "pad_mode" : 1,
      "Nx" : 1,
      "pad_value" : 0,
      "Ny" : 1,
      "n_parallel" : 1
    },
    {
      "name" : "BoxPredictor_1\/Reshape:0",
      "bottom" : "BoxPredictor_1\/BoxEncodingPredictor\/BiasAdd:0",
      "dst_n" : 0,
      "mode" : 1,
      "dst_seq" : 1,
      "dst_k" : 4,
      "weights" : {

      },
      "top" : "BoxPredictor_1\/Reshape:0",
      "dst_h" : 1,
      "dst_w" : 600,
      "type" : "reshape"
    },
    {
      "pad_r" : 0,
      "fused_relu" : 1,
      "fused_tanh" : 0,
      "pad_fill_mode" : 0,
      "pad_b" : 0,
      "pad_l" : 0,
      "top" : "relu_FeatureExtractor\/MobilenetV1\/Conv2d_13_pointwise_1_Conv2d_2_1x1_256\/Relu6:0",
      "blob_weights" : 127,
      "K" : 1024,
      "blob_biases" : 125,
      "name" : "FeatureExtractor\/MobilenetV1\/Conv2d_13_pointwise_1_Conv2d_2_1x1_256\/BatchNorm\/batchnorm\/mul_1:0",
      "has_batch_norm" : 0,
      "type" : "convolution",
      "n_groups" : 1,
      "pad_t" : 0,
      "has_biases" : 1,
      "C" : 256,
      "bottom" : "FeatureExtractor\/MobilenetV1\/MobilenetV1\/Conv2d_13_pointwise\/Relu6:0",
      "weights" : {

      },
      "pad_mode" : 1,
      "Nx" : 1,
      "pad_value" : 0,
      "Ny" : 1,
      "n_parallel" : 1
    },
    {
      "alpha" : -1,
      "bottom" : "relu_FeatureExtractor\/MobilenetV1\/Conv2d_13_pointwise_1_Conv2d_2_1x1_256\/Relu6:0",
      "weights" : {

      },
      "mode" : 6,
      "top" : "relu_FeatureExtractor\/MobilenetV1\/Conv2d_13_pointwise_1_Conv2d_2_1x1_256\/Relu6:0_neg",
      "type" : "activation",
      "name" : "relu_FeatureExtractor\/MobilenetV1\/Conv2d_13_pointwise_1_Conv2d_2_1x1_256\/Relu6:0_neg",
      "beta" : 0
    },
    {
      "alpha" : -6,
      "bottom" : "relu_FeatureExtractor\/MobilenetV1\/Conv2d_13_pointwise_1_Conv2d_2_1x1_256\/Relu6:0_neg",
      "operation" : 25,
      "weights" : {

      },
      "fused_relu" : 0,
      "top" : "relu_FeatureExtractor\/MobilenetV1\/Conv2d_13_pointwise_1_Conv2d_2_1x1_256\/Relu6:0_clip",
      "type" : "elementwise",
      "name" : "relu_FeatureExtractor\/MobilenetV1\/Conv2d_13_pointwise_1_Conv2d_2_1x1_256\/Relu6:0_clip",
      "beta" : 0
    },
    {
      "alpha" : -1,
      "bottom" : "relu_FeatureExtractor\/MobilenetV1\/Conv2d_13_pointwise_1_Conv2d_2_1x1_256\/Relu6:0_clip",
      "weights" : {

      },
      "mode" : 6,
      "top" : "FeatureExtractor\/MobilenetV1\/Conv2d_13_pointwise_1_Conv2d_2_1x1_256\/Relu6:0",
      "type" : "activation",
      "name" : "FeatureExtractor\/MobilenetV1\/Conv2d_13_pointwise_1_Conv2d_2_1x1_256\/Relu6:0",
      "beta" : 0
    },
    {
      "pad_r" : 0,
      "fused_relu" : 1,
      "fused_tanh" : 0,
      "pad_fill_mode" : 0,
      "pad_b" : 0,
      "pad_l" : 0,
      "top" : "relu_FeatureExtractor\/MobilenetV1\/Conv2d_13_pointwise_2_Conv2d_2_3x3_s2_512\/Relu6:0",
      "blob_weights" : 131,
      "K" : 256,
      "blob_biases" : 129,
      "stride_x" : 2,
      "name" : "FeatureExtractor\/MobilenetV1\/Conv2d_13_pointwise_2_Conv2d_2_3x3_s2_512\/BatchNorm\/batchnorm\/mul_1:0",
      "has_batch_norm" : 0,
      "type" : "convolution",
      "n_groups" : 1,
      "pad_t" : 0,
      "stride_y" : 2,
      "has_biases" : 1,
      "C" : 512,
      "bottom" : "FeatureExtractor\/MobilenetV1\/Conv2d_13_pointwise_1_Conv2d_2_1x1_256\/Relu6:0",
      "weights" : {

      },
      "Nx" : 3,
      "pad_mode" : 1,
      "pad_value" : 0,
      "Ny" : 3,
      "n_parallel" : 1
    },
    {
      "alpha" : -1,
      "bottom" : "relu_FeatureExtractor\/MobilenetV1\/Conv2d_13_pointwise_2_Conv2d_2_3x3_s2_512\/Relu6:0",
      "weights" : {

      },
      "mode" : 6,
      "top" : "relu_FeatureExtractor\/MobilenetV1\/Conv2d_13_pointwise_2_Conv2d_2_3x3_s2_512\/Relu6:0_neg",
      "type" : "activation",
      "name" : "relu_FeatureExtractor\/MobilenetV1\/Conv2d_13_pointwise_2_Conv2d_2_3x3_s2_512\/Relu6:0_neg",
      "beta" : 0
    },
    {
      "alpha" : -6,
      "bottom" : "relu_FeatureExtractor\/MobilenetV1\/Conv2d_13_pointwise_2_Conv2d_2_3x3_s2_512\/Relu6:0_neg",
      "operation" : 25,
      "weights" : {

      },
      "fused_relu" : 0,
      "top" : "relu_FeatureExtractor\/MobilenetV1\/Conv2d_13_pointwise_2_Conv2d_2_3x3_s2_512\/Relu6:0_clip",
      "type" : "elementwise",
      "name" : "relu_FeatureExtractor\/MobilenetV1\/Conv2d_13_pointwise_2_Conv2d_2_3x3_s2_512\/Relu6:0_clip",
      "beta" : 0
    },
    {
      "alpha" : -1,
      "bottom" : "relu_FeatureExtractor\/MobilenetV1\/Conv2d_13_pointwise_2_Conv2d_2_3x3_s2_512\/Relu6:0_clip",
      "weights" : {

      },
      "mode" : 6,
      "top" : "FeatureExtractor\/MobilenetV1\/Conv2d_13_pointwise_2_Conv2d_2_3x3_s2_512\/Relu6:0",
      "type" : "activation",
      "name" : "FeatureExtractor\/MobilenetV1\/Conv2d_13_pointwise_2_Conv2d_2_3x3_s2_512\/Relu6:0",
      "beta" : 0
    },
    {
      "pad_r" : 0,
      "fused_relu" : 0,
      "fused_tanh" : 0,
      "pad_fill_mode" : 0,
      "pad_b" : 0,
      "pad_l" : 0,
      "top" : "BoxPredictor_2\/ClassPredictor\/BiasAdd:0",
      "blob_weights" : 135,
      "K" : 512,
      "blob_biases" : 133,
      "name" : "BoxPredictor_2\/ClassPredictor\/convolution:0",
      "has_batch_norm" : 0,
      "type" : "convolution",
      "n_groups" : 1,
      "pad_t" : 0,
      "has_biases" : 1,
      "C" : 546,
      "bottom" : "FeatureExtractor\/MobilenetV1\/Conv2d_13_pointwise_2_Conv2d_2_3x3_s2_512\/Relu6:0",
      "weights" : {

      },
      "pad_mode" : 1,
      "Nx" : 1,
      "pad_value" : 0,
      "Ny" : 1,
      "n_parallel" : 1
    },
    {
      "name" : "BoxPredictor_2\/Reshape_1:0",
      "bottom" : "BoxPredictor_2\/ClassPredictor\/BiasAdd:0",
      "dst_n" : 0,
      "mode" : 1,
      "dst_seq" : 1,
      "dst_k" : 91,
      "weights" : {

      },
      "top" : "BoxPredictor_2\/Reshape_1:0",
      "dst_h" : 1,
      "dst_w" : 150,
      "type" : "reshape"
    },
    {
      "pad_r" : 0,
      "fused_relu" : 0,
      "fused_tanh" : 0,
      "pad_fill_mode" : 0,
      "pad_b" : 0,
      "pad_l" : 0,
      "top" : "BoxPredictor_2\/BoxEncodingPredictor\/BiasAdd:0",
      "blob_weights" : 139,
      "K" : 512,
      "blob_biases" : 137,
      "name" : "BoxPredictor_2\/BoxEncodingPredictor\/convolution:0",
      "has_batch_norm" : 0,
      "type" : "convolution",
      "n_groups" : 1,
      "pad_t" : 0,
      "has_biases" : 1,
      "C" : 24,
      "bottom" : "FeatureExtractor\/MobilenetV1\/Conv2d_13_pointwise_2_Conv2d_2_3x3_s2_512\/Relu6:0",
      "weights" : {

      },
      "pad_mode" : 1,
      "Nx" : 1,
      "pad_value" : 0,
      "Ny" : 1,
      "n_parallel" : 1
    },
    {
      "name" : "BoxPredictor_2\/Reshape:0",
      "bottom" : "BoxPredictor_2\/BoxEncodingPredictor\/BiasAdd:0",
      "dst_n" : 0,
      "mode" : 1,
      "dst_seq" : 1,
      "dst_k" : 4,
      "weights" : {

      },
      "top" : "BoxPredictor_2\/Reshape:0",
      "dst_h" : 1,
      "dst_w" : 150,
      "type" : "reshape"
    },
    {
      "pad_r" : 0,
      "fused_relu" : 1,
      "fused_tanh" : 0,
      "pad_fill_mode" : 0,
      "pad_b" : 0,
      "pad_l" : 0,
      "top" : "relu_FeatureExtractor\/MobilenetV1\/Conv2d_13_pointwise_1_Conv2d_3_1x1_128\/Relu6:0",
      "blob_weights" : 143,
      "K" : 512,
      "blob_biases" : 141,
      "name" : "FeatureExtractor\/MobilenetV1\/Conv2d_13_pointwise_1_Conv2d_3_1x1_128\/BatchNorm\/batchnorm\/mul_1:0",
      "has_batch_norm" : 0,
      "type" : "convolution",
      "n_groups" : 1,
      "pad_t" : 0,
      "has_biases" : 1,
      "C" : 128,
      "bottom" : "FeatureExtractor\/MobilenetV1\/Conv2d_13_pointwise_2_Conv2d_2_3x3_s2_512\/Relu6:0",
      "weights" : {

      },
      "pad_mode" : 1,
      "Nx" : 1,
      "pad_value" : 0,
      "Ny" : 1,
      "n_parallel" : 1
    },
    {
      "alpha" : -1,
      "bottom" : "relu_FeatureExtractor\/MobilenetV1\/Conv2d_13_pointwise_1_Conv2d_3_1x1_128\/Relu6:0",
      "weights" : {

      },
      "mode" : 6,
      "top" : "relu_FeatureExtractor\/MobilenetV1\/Conv2d_13_pointwise_1_Conv2d_3_1x1_128\/Relu6:0_neg",
      "type" : "activation",
      "name" : "relu_FeatureExtractor\/MobilenetV1\/Conv2d_13_pointwise_1_Conv2d_3_1x1_128\/Relu6:0_neg",
      "beta" : 0
    },
    {
      "alpha" : -6,
      "bottom" : "relu_FeatureExtractor\/MobilenetV1\/Conv2d_13_pointwise_1_Conv2d_3_1x1_128\/Relu6:0_neg",
      "operation" : 25,
      "weights" : {

      },
      "fused_relu" : 0,
      "top" : "relu_FeatureExtractor\/MobilenetV1\/Conv2d_13_pointwise_1_Conv2d_3_1x1_128\/Relu6:0_clip",
      "type" : "elementwise",
      "name" : "relu_FeatureExtractor\/MobilenetV1\/Conv2d_13_pointwise_1_Conv2d_3_1x1_128\/Relu6:0_clip",
      "beta" : 0
    },
    {
      "alpha" : -1,
      "bottom" : "relu_FeatureExtractor\/MobilenetV1\/Conv2d_13_pointwise_1_Conv2d_3_1x1_128\/Relu6:0_clip",
      "weights" : {

      },
      "mode" : 6,
      "top" : "FeatureExtractor\/MobilenetV1\/Conv2d_13_pointwise_1_Conv2d_3_1x1_128\/Relu6:0",
      "type" : "activation",
      "name" : "FeatureExtractor\/MobilenetV1\/Conv2d_13_pointwise_1_Conv2d_3_1x1_128\/Relu6:0",
      "beta" : 0
    },
    {
      "k" : 128,
      "bottom" : "",
      "n" : 1,
      "weights" : {

      },
      "h" : 6,
      "constant_blob" : 145,
      "top" : "FeatureExtractor\/MobilenetV1\/zeros_1:0",
      "w" : 1,
      "type" : "load_constant",
      "name" : "FeatureExtractor\/MobilenetV1\/zeros_1:0"
    },
    {
      "k" : 128,
      "bottom" : "",
      "n" : 1,
      "weights" : {

      },
      "h" : 1,
      "constant_blob" : 147,
      "top" : "FeatureExtractor\/MobilenetV1\/zeros:0",
      "w" : 5,
      "type" : "load_constant",
      "name" : "FeatureExtractor\/MobilenetV1\/zeros:0"
    },
    {
      "axis_h" : 2,
      "axis_w" : 0,
      "axis_k" : 1,
      "bottom" : "FeatureExtractor\/MobilenetV1\/Conv2d_13_pointwise_1_Conv2d_3_1x1_128\/Relu6:0",
      "axis_n" : 3,
      "axis_seq" : 4,
      "weights" : {

      },
      "top" : "FeatureExtractor\/MobilenetV1\/Conv2d_13_pointwise_1_Conv2d_3_1x1_128\/Relu6:0_swap_H_C_0",
      "type" : "transpose",
      "name" : "FeatureExtractor\/MobilenetV1\/concat:0_0"
    },
    {
      "axis_h" : 2,
      "axis_w" : 0,
      "axis_k" : 1,
      "bottom" : "FeatureExtractor\/MobilenetV1\/zeros:0",
      "axis_n" : 3,
      "axis_seq" : 4,
      "weights" : {

      },
      "top" : "FeatureExtractor\/MobilenetV1\/zeros:0_swap_H_C_1",
      "type" : "transpose",
      "name" : "FeatureExtractor\/MobilenetV1\/concat:0_1"
    },
    {
      "weights" : {

      },
      "top" : "FeatureExtractor\/MobilenetV1\/concat:0_concat",
      "type" : "concat",
      "name" : "FeatureExtractor\/MobilenetV1\/concat:0_concat",
      "bottom" : "FeatureExtractor\/MobilenetV1\/Conv2d_13_pointwise_1_Conv2d_3_1x1_128\/Relu6:0_swap_H_C_0,FeatureExtractor\/MobilenetV1\/zeros:0_swap_H_C_1"
    },
    {
      "axis_h" : 2,
      "axis_w" : 0,
      "axis_k" : 1,
      "bottom" : "FeatureExtractor\/MobilenetV1\/concat:0_concat",
      "axis_n" : 3,
      "axis_seq" : 4,
      "weights" : {

      },
      "top" : "FeatureExtractor\/MobilenetV1\/concat:0",
      "type" : "transpose",
      "name" : "FeatureExtractor\/MobilenetV1\/concat:0"
    },
    {
      "axis_h" : 1,
      "axis_w" : 2,
      "axis_k" : 0,
      "bottom" : "FeatureExtractor\/MobilenetV1\/concat:0",
      "axis_n" : 3,
      "axis_seq" : 4,
      "weights" : {

      },
      "top" : "FeatureExtractor\/MobilenetV1\/concat:0_swap_W_C_0",
      "type" : "transpose",
      "name" : "FeatureExtractor\/MobilenetV1\/concat_1:0_0"
    },
    {
      "axis_h" : 1,
      "axis_w" : 2,
      "axis_k" : 0,
      "bottom" : "FeatureExtractor\/MobilenetV1\/zeros_1:0",
      "axis_n" : 3,
      "axis_seq" : 4,
      "weights" : {

      },
      "top" : "FeatureExtractor\/MobilenetV1\/zeros_1:0_swap_W_C_1",
      "type" : "transpose",
      "name" : "FeatureExtractor\/MobilenetV1\/concat_1:0_1"
    },
    {
      "weights" : {

      },
      "top" : "FeatureExtractor\/MobilenetV1\/concat_1:0_concat",
      "type" : "concat",
      "name" : "FeatureExtractor\/MobilenetV1\/concat_1:0_concat",
      "bottom" : "FeatureExtractor\/MobilenetV1\/concat:0_swap_W_C_0,FeatureExtractor\/MobilenetV1\/zeros_1:0_swap_W_C_1"
    },
    {
      "axis_h" : 1,
      "axis_w" : 2,
      "axis_k" : 0,
      "bottom" : "FeatureExtractor\/MobilenetV1\/concat_1:0_concat",
      "axis_n" : 3,
      "axis_seq" : 4,
      "weights" : {

      },
      "top" : "FeatureExtractor\/MobilenetV1\/concat_1:0",
      "type" : "transpose",
      "name" : "FeatureExtractor\/MobilenetV1\/concat_1:0"
    },
    {
      "pad_r" : 0,
      "fused_relu" : 1,
      "fused_tanh" : 0,
      "pad_fill_mode" : 0,
      "pad_b" : 0,
      "pad_l" : 0,
      "top" : "relu_FeatureExtractor\/MobilenetV1\/Conv2d_13_pointwise_2_Conv2d_3_3x3_s2_256\/Relu6:0",
      "blob_weights" : 151,
      "K" : 128,
      "blob_biases" : 149,
      "stride_x" : 2,
      "name" : "FeatureExtractor\/MobilenetV1\/Conv2d_13_pointwise_2_Conv2d_3_3x3_s2_256\/BatchNorm\/batchnorm\/mul_1:0",
      "has_batch_norm" : 0,
      "type" : "convolution",
      "n_groups" : 1,
      "pad_t" : 0,
      "stride_y" : 2,
      "has_biases" : 1,
      "C" : 256,
      "bottom" : "FeatureExtractor\/MobilenetV1\/concat_1:0",
      "weights" : {

      },
      "Nx" : 3,
      "pad_mode" : 1,
      "pad_value" : 0,
      "Ny" : 3,
      "n_parallel" : 1
    },
    {
      "alpha" : -1,
      "bottom" : "relu_FeatureExtractor\/MobilenetV1\/Conv2d_13_pointwise_2_Conv2d_3_3x3_s2_256\/Relu6:0",
      "weights" : {

      },
      "mode" : 6,
      "top" : "relu_FeatureExtractor\/MobilenetV1\/Conv2d_13_pointwise_2_Conv2d_3_3x3_s2_256\/Relu6:0_neg",
      "type" : "activation",
      "name" : "relu_FeatureExtractor\/MobilenetV1\/Conv2d_13_pointwise_2_Conv2d_3_3x3_s2_256\/Relu6:0_neg",
      "beta" : 0
    },
    {
      "alpha" : -6,
      "bottom" : "relu_FeatureExtractor\/MobilenetV1\/Conv2d_13_pointwise_2_Conv2d_3_3x3_s2_256\/Relu6:0_neg",
      "operation" : 25,
      "weights" : {

      },
      "fused_relu" : 0,
      "top" : "relu_FeatureExtractor\/MobilenetV1\/Conv2d_13_pointwise_2_Conv2d_3_3x3_s2_256\/Relu6:0_clip",
      "type" : "elementwise",
      "name" : "relu_FeatureExtractor\/MobilenetV1\/Conv2d_13_pointwise_2_Conv2d_3_3x3_s2_256\/Relu6:0_clip",
      "beta" : 0
    },
    {
      "alpha" : -1,
      "bottom" : "relu_FeatureExtractor\/MobilenetV1\/Conv2d_13_pointwise_2_Conv2d_3_3x3_s2_256\/Relu6:0_clip",
      "weights" : {

      },
      "mode" : 6,
      "top" : "FeatureExtractor\/MobilenetV1\/Conv2d_13_pointwise_2_Conv2d_3_3x3_s2_256\/Relu6:0",
      "type" : "activation",
      "name" : "FeatureExtractor\/MobilenetV1\/Conv2d_13_pointwise_2_Conv2d_3_3x3_s2_256\/Relu6:0",
      "beta" : 0
    },
    {
      "pad_r" : 0,
      "fused_relu" : 0,
      "fused_tanh" : 0,
      "pad_fill_mode" : 0,
      "pad_b" : 0,
      "pad_l" : 0,
      "top" : "BoxPredictor_3\/ClassPredictor\/BiasAdd:0",
      "blob_weights" : 155,
      "K" : 256,
      "blob_biases" : 153,
      "name" : "BoxPredictor_3\/ClassPredictor\/convolution:0",
      "has_batch_norm" : 0,
      "type" : "convolution",
      "n_groups" : 1,
      "pad_t" : 0,
      "has_biases" : 1,
      "C" : 546,
      "bottom" : "FeatureExtractor\/MobilenetV1\/Conv2d_13_pointwise_2_Conv2d_3_3x3_s2_256\/Relu6:0",
      "weights" : {

      },
      "pad_mode" : 1,
      "Nx" : 1,
      "pad_value" : 0,
      "Ny" : 1,
      "n_parallel" : 1
    },
    {
      "name" : "BoxPredictor_3\/Reshape_1:0",
      "bottom" : "BoxPredictor_3\/ClassPredictor\/BiasAdd:0",
      "dst_n" : 0,
      "mode" : 1,
      "dst_seq" : 1,
      "dst_k" : 91,
      "weights" : {

      },
      "top" : "BoxPredictor_3\/Reshape_1:0",
      "dst_h" : 1,
      "dst_w" : 54,
      "type" : "reshape"
    },
    {
      "pad_r" : 0,
      "fused_relu" : 0,
      "fused_tanh" : 0,
      "pad_fill_mode" : 0,
      "pad_b" : 0,
      "pad_l" : 0,
      "top" : "BoxPredictor_3\/BoxEncodingPredictor\/BiasAdd:0",
      "blob_weights" : 159,
      "K" : 256,
      "blob_biases" : 157,
      "name" : "BoxPredictor_3\/BoxEncodingPredictor\/convolution:0",
      "has_batch_norm" : 0,
      "type" : "convolution",
      "n_groups" : 1,
      "pad_t" : 0,
      "has_biases" : 1,
      "C" : 24,
      "bottom" : "FeatureExtractor\/MobilenetV1\/Conv2d_13_pointwise_2_Conv2d_3_3x3_s2_256\/Relu6:0",
      "weights" : {

      },
      "pad_mode" : 1,
      "Nx" : 1,
      "pad_value" : 0,
      "Ny" : 1,
      "n_parallel" : 1
    },
    {
      "name" : "BoxPredictor_3\/Reshape:0",
      "bottom" : "BoxPredictor_3\/BoxEncodingPredictor\/BiasAdd:0",
      "dst_n" : 0,
      "mode" : 1,
      "dst_seq" : 1,
      "dst_k" : 4,
      "weights" : {

      },
      "top" : "BoxPredictor_3\/Reshape:0",
      "dst_h" : 1,
      "dst_w" : 54,
      "type" : "reshape"
    },
    {
      "pad_r" : 0,
      "fused_relu" : 1,
      "fused_tanh" : 0,
      "pad_fill_mode" : 0,
      "pad_b" : 0,
      "pad_l" : 0,
      "top" : "relu_FeatureExtractor\/MobilenetV1\/Conv2d_13_pointwise_1_Conv2d_4_1x1_128\/Relu6:0",
      "blob_weights" : 163,
      "K" : 256,
      "blob_biases" : 161,
      "name" : "FeatureExtractor\/MobilenetV1\/Conv2d_13_pointwise_1_Conv2d_4_1x1_128\/BatchNorm\/batchnorm\/mul_1:0",
      "has_batch_norm" : 0,
      "type" : "convolution",
      "n_groups" : 1,
      "pad_t" : 0,
      "has_biases" : 1,
      "C" : 128,
      "bottom" : "FeatureExtractor\/MobilenetV1\/Conv2d_13_pointwise_2_Conv2d_3_3x3_s2_256\/Relu6:0",
      "weights" : {

      },
      "pad_mode" : 1,
      "Nx" : 1,
      "pad_value" : 0,
      "Ny" : 1,
      "n_parallel" : 1
    },
    {
      "alpha" : -1,
      "bottom" : "relu_FeatureExtractor\/MobilenetV1\/Conv2d_13_pointwise_1_Conv2d_4_1x1_128\/Relu6:0",
      "weights" : {

      },
      "mode" : 6,
      "top" : "relu_FeatureExtractor\/MobilenetV1\/Conv2d_13_pointwise_1_Conv2d_4_1x1_128\/Relu6:0_neg",
      "type" : "activation",
      "name" : "relu_FeatureExtractor\/MobilenetV1\/Conv2d_13_pointwise_1_Conv2d_4_1x1_128\/Relu6:0_neg",
      "beta" : 0
    },
    {
      "alpha" : -6,
      "bottom" : "relu_FeatureExtractor\/MobilenetV1\/Conv2d_13_pointwise_1_Conv2d_4_1x1_128\/Relu6:0_neg",
      "operation" : 25,
      "weights" : {

      },
      "fused_relu" : 0,
      "top" : "relu_FeatureExtractor\/MobilenetV1\/Conv2d_13_pointwise_1_Conv2d_4_1x1_128\/Relu6:0_clip",
      "type" : "elementwise",
      "name" : "relu_FeatureExtractor\/MobilenetV1\/Conv2d_13_pointwise_1_Conv2d_4_1x1_128\/Relu6:0_clip",
      "beta" : 0
    },
    {
      "alpha" : -1,
      "bottom" : "relu_FeatureExtractor\/MobilenetV1\/Conv2d_13_pointwise_1_Conv2d_4_1x1_128\/Relu6:0_clip",
      "weights" : {

      },
      "mode" : 6,
      "top" : "FeatureExtractor\/MobilenetV1\/Conv2d_13_pointwise_1_Conv2d_4_1x1_128\/Relu6:0",
      "type" : "activation",
      "name" : "FeatureExtractor\/MobilenetV1\/Conv2d_13_pointwise_1_Conv2d_4_1x1_128\/Relu6:0",
      "beta" : 0
    },
    {
      "k" : 128,
      "bottom" : "",
      "n" : 1,
      "weights" : {

      },
      "h" : 4,
      "constant_blob" : 165,
      "top" : "FeatureExtractor\/MobilenetV1\/zeros_3:0",
      "w" : 1,
      "type" : "load_constant",
      "name" : "FeatureExtractor\/MobilenetV1\/zeros_3:0"
    },
    {
      "k" : 128,
      "bottom" : "",
      "n" : 1,
      "weights" : {

      },
      "h" : 1,
      "constant_blob" : 167,
      "top" : "FeatureExtractor\/MobilenetV1\/zeros_2:0",
      "w" : 3,
      "type" : "load_constant",
      "name" : "FeatureExtractor\/MobilenetV1\/zeros_2:0"
    },
    {
      "axis_h" : 2,
      "axis_w" : 0,
      "axis_k" : 1,
      "bottom" : "FeatureExtractor\/MobilenetV1\/Conv2d_13_pointwise_1_Conv2d_4_1x1_128\/Relu6:0",
      "axis_n" : 3,
      "axis_seq" : 4,
      "weights" : {

      },
      "top" : "FeatureExtractor\/MobilenetV1\/Conv2d_13_pointwise_1_Conv2d_4_1x1_128\/Relu6:0_swap_H_C_0",
      "type" : "transpose",
      "name" : "FeatureExtractor\/MobilenetV1\/concat_2:0_0"
    },
    {
      "axis_h" : 2,
      "axis_w" : 0,
      "axis_k" : 1,
      "bottom" : "FeatureExtractor\/MobilenetV1\/zeros_2:0",
      "axis_n" : 3,
      "axis_seq" : 4,
      "weights" : {

      },
      "top" : "FeatureExtractor\/MobilenetV1\/zeros_2:0_swap_H_C_1",
      "type" : "transpose",
      "name" : "FeatureExtractor\/MobilenetV1\/concat_2:0_1"
    },
    {
      "weights" : {

      },
      "top" : "FeatureExtractor\/MobilenetV1\/concat_2:0_concat",
      "type" : "concat",
      "name" : "FeatureExtractor\/MobilenetV1\/concat_2:0_concat",
      "bottom" : "FeatureExtractor\/MobilenetV1\/Conv2d_13_pointwise_1_Conv2d_4_1x1_128\/Relu6:0_swap_H_C_0,FeatureExtractor\/MobilenetV1\/zeros_2:0_swap_H_C_1"
    },
    {
      "axis_h" : 2,
      "axis_w" : 0,
      "axis_k" : 1,
      "bottom" : "FeatureExtractor\/MobilenetV1\/concat_2:0_concat",
      "axis_n" : 3,
      "axis_seq" : 4,
      "weights" : {

      },
      "top" : "FeatureExtractor\/MobilenetV1\/concat_2:0",
      "type" : "transpose",
      "name" : "FeatureExtractor\/MobilenetV1\/concat_2:0"
    },
    {
      "axis_h" : 1,
      "axis_w" : 2,
      "axis_k" : 0,
      "bottom" : "FeatureExtractor\/MobilenetV1\/concat_2:0",
      "axis_n" : 3,
      "axis_seq" : 4,
      "weights" : {

      },
      "top" : "FeatureExtractor\/MobilenetV1\/concat_2:0_swap_W_C_0",
      "type" : "transpose",
      "name" : "FeatureExtractor\/MobilenetV1\/concat_3:0_0"
    },
    {
      "axis_h" : 1,
      "axis_w" : 2,
      "axis_k" : 0,
      "bottom" : "FeatureExtractor\/MobilenetV1\/zeros_3:0",
      "axis_n" : 3,
      "axis_seq" : 4,
      "weights" : {

      },
      "top" : "FeatureExtractor\/MobilenetV1\/zeros_3:0_swap_W_C_1",
      "type" : "transpose",
      "name" : "FeatureExtractor\/MobilenetV1\/concat_3:0_1"
    },
    {
      "weights" : {

      },
      "top" : "FeatureExtractor\/MobilenetV1\/concat_3:0_concat",
      "type" : "concat",
      "name" : "FeatureExtractor\/MobilenetV1\/concat_3:0_concat",
      "bottom" : "FeatureExtractor\/MobilenetV1\/concat_2:0_swap_W_C_0,FeatureExtractor\/MobilenetV1\/zeros_3:0_swap_W_C_1"
    },
    {
      "axis_h" : 1,
      "axis_w" : 2,
      "axis_k" : 0,
      "bottom" : "FeatureExtractor\/MobilenetV1\/concat_3:0_concat",
      "axis_n" : 3,
      "axis_seq" : 4,
      "weights" : {

      },
      "top" : "FeatureExtractor\/MobilenetV1\/concat_3:0",
      "type" : "transpose",
      "name" : "FeatureExtractor\/MobilenetV1\/concat_3:0"
    },
    {
      "pad_r" : 0,
      "fused_relu" : 1,
      "fused_tanh" : 0,
      "pad_fill_mode" : 0,
      "pad_b" : 0,
      "pad_l" : 0,
      "top" : "relu_FeatureExtractor\/MobilenetV1\/Conv2d_13_pointwise_2_Conv2d_4_3x3_s2_256\/Relu6:0",
      "blob_weights" : 171,
      "K" : 128,
      "blob_biases" : 169,
      "stride_x" : 2,
      "name" : "FeatureExtractor\/MobilenetV1\/Conv2d_13_pointwise_2_Conv2d_4_3x3_s2_256\/BatchNorm\/batchnorm\/mul_1:0",
      "has_batch_norm" : 0,
      "type" : "convolution",
      "n_groups" : 1,
      "pad_t" : 0,
      "stride_y" : 2,
      "has_biases" : 1,
      "C" : 256,
      "bottom" : "FeatureExtractor\/MobilenetV1\/concat_3:0",
      "weights" : {

      },
      "Nx" : 3,
      "pad_mode" : 1,
      "pad_value" : 0,
      "Ny" : 3,
      "n_parallel" : 1
    },
    {
      "alpha" : -1,
      "bottom" : "relu_FeatureExtractor\/MobilenetV1\/Conv2d_13_pointwise_2_Conv2d_4_3x3_s2_256\/Relu6:0",
      "weights" : {

      },
      "mode" : 6,
      "top" : "relu_FeatureExtractor\/MobilenetV1\/Conv2d_13_pointwise_2_Conv2d_4_3x3_s2_256\/Relu6:0_neg",
      "type" : "activation",
      "name" : "relu_FeatureExtractor\/MobilenetV1\/Conv2d_13_pointwise_2_Conv2d_4_3x3_s2_256\/Relu6:0_neg",
      "beta" : 0
    },
    {
      "alpha" : -6,
      "bottom" : "relu_FeatureExtractor\/MobilenetV1\/Conv2d_13_pointwise_2_Conv2d_4_3x3_s2_256\/Relu6:0_neg",
      "operation" : 25,
      "weights" : {

      },
      "fused_relu" : 0,
      "top" : "relu_FeatureExtractor\/MobilenetV1\/Conv2d_13_pointwise_2_Conv2d_4_3x3_s2_256\/Relu6:0_clip",
      "type" : "elementwise",
      "name" : "relu_FeatureExtractor\/MobilenetV1\/Conv2d_13_pointwise_2_Conv2d_4_3x3_s2_256\/Relu6:0_clip",
      "beta" : 0
    },
    {
      "alpha" : -1,
      "bottom" : "relu_FeatureExtractor\/MobilenetV1\/Conv2d_13_pointwise_2_Conv2d_4_3x3_s2_256\/Relu6:0_clip",
      "weights" : {

      },
      "mode" : 6,
      "top" : "FeatureExtractor\/MobilenetV1\/Conv2d_13_pointwise_2_Conv2d_4_3x3_s2_256\/Relu6:0",
      "type" : "activation",
      "name" : "FeatureExtractor\/MobilenetV1\/Conv2d_13_pointwise_2_Conv2d_4_3x3_s2_256\/Relu6:0",
      "beta" : 0
    },
    {
      "pad_r" : 0,
      "fused_relu" : 0,
      "fused_tanh" : 0,
      "pad_fill_mode" : 0,
      "pad_b" : 0,
      "pad_l" : 0,
      "top" : "BoxPredictor_4\/ClassPredictor\/BiasAdd:0",
      "blob_weights" : 175,
      "K" : 256,
      "blob_biases" : 173,
      "name" : "BoxPredictor_4\/ClassPredictor\/convolution:0",
      "has_batch_norm" : 0,
      "type" : "convolution",
      "n_groups" : 1,
      "pad_t" : 0,
      "has_biases" : 1,
      "C" : 546,
      "bottom" : "FeatureExtractor\/MobilenetV1\/Conv2d_13_pointwise_2_Conv2d_4_3x3_s2_256\/Relu6:0",
      "weights" : {

      },
      "pad_mode" : 1,
      "Nx" : 1,
      "pad_value" : 0,
      "Ny" : 1,
      "n_parallel" : 1
    },
    {
      "name" : "BoxPredictor_4\/Reshape_1:0",
      "bottom" : "BoxPredictor_4\/ClassPredictor\/BiasAdd:0",
      "dst_n" : 0,
      "mode" : 1,
      "dst_seq" : 1,
      "dst_k" : 91,
      "weights" : {

      },
      "top" : "BoxPredictor_4\/Reshape_1:0",
      "dst_h" : 1,
      "dst_w" : 24,
      "type" : "reshape"
    },
    {
      "pad_r" : 0,
      "fused_relu" : 0,
      "fused_tanh" : 0,
      "pad_fill_mode" : 0,
      "pad_b" : 0,
      "pad_l" : 0,
      "top" : "BoxPredictor_4\/BoxEncodingPredictor\/BiasAdd:0",
      "blob_weights" : 179,
      "K" : 256,
      "blob_biases" : 177,
      "name" : "BoxPredictor_4\/BoxEncodingPredictor\/convolution:0",
      "has_batch_norm" : 0,
      "type" : "convolution",
      "n_groups" : 1,
      "pad_t" : 0,
      "has_biases" : 1,
      "C" : 24,
      "bottom" : "FeatureExtractor\/MobilenetV1\/Conv2d_13_pointwise_2_Conv2d_4_3x3_s2_256\/Relu6:0",
      "weights" : {

      },
      "pad_mode" : 1,
      "Nx" : 1,
      "pad_value" : 0,
      "Ny" : 1,
      "n_parallel" : 1
    },
    {
      "name" : "BoxPredictor_4\/Reshape:0",
      "bottom" : "BoxPredictor_4\/BoxEncodingPredictor\/BiasAdd:0",
      "dst_n" : 0,
      "mode" : 1,
      "dst_seq" : 1,
      "dst_k" : 4,
      "weights" : {

      },
      "top" : "BoxPredictor_4\/Reshape:0",
      "dst_h" : 1,
      "dst_w" : 24,
      "type" : "reshape"
    },
    {
      "pad_r" : 0,
      "fused_relu" : 1,
      "fused_tanh" : 0,
      "pad_fill_mode" : 0,
      "pad_b" : 0,
      "pad_l" : 0,
      "top" : "relu_FeatureExtractor\/MobilenetV1\/Conv2d_13_pointwise_1_Conv2d_5_1x1_64\/Relu6:0",
      "blob_weights" : 183,
      "K" : 256,
      "blob_biases" : 181,
      "name" : "FeatureExtractor\/MobilenetV1\/Conv2d_13_pointwise_1_Conv2d_5_1x1_64\/BatchNorm\/batchnorm\/mul_1:0",
      "has_batch_norm" : 0,
      "type" : "convolution",
      "n_groups" : 1,
      "pad_t" : 0,
      "has_biases" : 1,
      "C" : 64,
      "bottom" : "FeatureExtractor\/MobilenetV1\/Conv2d_13_pointwise_2_Conv2d_4_3x3_s2_256\/Relu6:0",
      "weights" : {

      },
      "pad_mode" : 1,
      "Nx" : 1,
      "pad_value" : 0,
      "Ny" : 1,
      "n_parallel" : 1
    },
    {
      "alpha" : -1,
      "bottom" : "relu_FeatureExtractor\/MobilenetV1\/Conv2d_13_pointwise_1_Conv2d_5_1x1_64\/Relu6:0",
      "weights" : {

      },
      "mode" : 6,
      "top" : "relu_FeatureExtractor\/MobilenetV1\/Conv2d_13_pointwise_1_Conv2d_5_1x1_64\/Relu6:0_neg",
      "type" : "activation",
      "name" : "relu_FeatureExtractor\/MobilenetV1\/Conv2d_13_pointwise_1_Conv2d_5_1x1_64\/Relu6:0_neg",
      "beta" : 0
    },
    {
      "alpha" : -6,
      "bottom" : "relu_FeatureExtractor\/MobilenetV1\/Conv2d_13_pointwise_1_Conv2d_5_1x1_64\/Relu6:0_neg",
      "operation" : 25,
      "weights" : {

      },
      "fused_relu" : 0,
      "top" : "relu_FeatureExtractor\/MobilenetV1\/Conv2d_13_pointwise_1_Conv2d_5_1x1_64\/Relu6:0_clip",
      "type" : "elementwise",
      "name" : "relu_FeatureExtractor\/MobilenetV1\/Conv2d_13_pointwise_1_Conv2d_5_1x1_64\/Relu6:0_clip",
      "beta" : 0
    },
    {
      "alpha" : -1,
      "bottom" : "relu_FeatureExtractor\/MobilenetV1\/Conv2d_13_pointwise_1_Conv2d_5_1x1_64\/Relu6:0_clip",
      "weights" : {

      },
      "mode" : 6,
      "top" : "FeatureExtractor\/MobilenetV1\/Conv2d_13_pointwise_1_Conv2d_5_1x1_64\/Relu6:0",
      "type" : "activation",
      "name" : "FeatureExtractor\/MobilenetV1\/Conv2d_13_pointwise_1_Conv2d_5_1x1_64\/Relu6:0",
      "beta" : 0
    },
    {
      "pad_r" : 0,
      "fused_relu" : 1,
      "fused_tanh" : 0,
      "pad_fill_mode" : 0,
      "pad_b" : 0,
      "pad_l" : 0,
      "top" : "relu_FeatureExtractor\/MobilenetV1\/Conv2d_13_pointwise_2_Conv2d_5_3x3_s2_128\/Relu6:0",
      "blob_weights" : 187,
      "K" : 64,
      "blob_biases" : 185,
      "stride_x" : 2,
      "name" : "FeatureExtractor\/MobilenetV1\/Conv2d_13_pointwise_2_Conv2d_5_3x3_s2_128\/BatchNorm\/batchnorm\/mul_1:0",
      "has_batch_norm" : 0,
      "type" : "convolution",
      "n_groups" : 1,
      "pad_t" : 0,
      "stride_y" : 2,
      "has_biases" : 1,
      "C" : 128,
      "bottom" : "FeatureExtractor\/MobilenetV1\/Conv2d_13_pointwise_1_Conv2d_5_1x1_64\/Relu6:0",
      "weights" : {

      },
      "Nx" : 3,
      "pad_mode" : 1,
      "pad_value" : 0,
      "Ny" : 3,
      "n_parallel" : 1
    },
    {
      "alpha" : -1,
      "bottom" : "relu_FeatureExtractor\/MobilenetV1\/Conv2d_13_pointwise_2_Conv2d_5_3x3_s2_128\/Relu6:0",
      "weights" : {

      },
      "mode" : 6,
      "top" : "relu_FeatureExtractor\/MobilenetV1\/Conv2d_13_pointwise_2_Conv2d_5_3x3_s2_128\/Relu6:0_neg",
      "type" : "activation",
      "name" : "relu_FeatureExtractor\/MobilenetV1\/Conv2d_13_pointwise_2_Conv2d_5_3x3_s2_128\/Relu6:0_neg",
      "beta" : 0
    },
    {
      "alpha" : -6,
      "bottom" : "relu_FeatureExtractor\/MobilenetV1\/Conv2d_13_pointwise_2_Conv2d_5_3x3_s2_128\/Relu6:0_neg",
      "operation" : 25,
      "weights" : {

      },
      "fused_relu" : 0,
      "top" : "relu_FeatureExtractor\/MobilenetV1\/Conv2d_13_pointwise_2_Conv2d_5_3x3_s2_128\/Relu6:0_clip",
      "type" : "elementwise",
      "name" : "relu_FeatureExtractor\/MobilenetV1\/Conv2d_13_pointwise_2_Conv2d_5_3x3_s2_128\/Relu6:0_clip",
      "beta" : 0
    },
    {
      "alpha" : -1,
      "bottom" : "relu_FeatureExtractor\/MobilenetV1\/Conv2d_13_pointwise_2_Conv2d_5_3x3_s2_128\/Relu6:0_clip",
      "weights" : {

      },
      "mode" : 6,
      "top" : "FeatureExtractor\/MobilenetV1\/Conv2d_13_pointwise_2_Conv2d_5_3x3_s2_128\/Relu6:0",
      "type" : "activation",
      "name" : "FeatureExtractor\/MobilenetV1\/Conv2d_13_pointwise_2_Conv2d_5_3x3_s2_128\/Relu6:0",
      "beta" : 0
    },
    {
      "pad_r" : 0,
      "fused_relu" : 0,
      "fused_tanh" : 0,
      "pad_fill_mode" : 0,
      "pad_b" : 0,
      "pad_l" : 0,
      "top" : "BoxPredictor_5\/ClassPredictor\/BiasAdd:0",
      "blob_weights" : 191,
      "K" : 128,
      "blob_biases" : 189,
      "name" : "BoxPredictor_5\/ClassPredictor\/convolution:0",
      "has_batch_norm" : 0,
      "type" : "convolution",
      "n_groups" : 1,
      "pad_t" : 0,
      "has_biases" : 1,
      "C" : 546,
      "bottom" : "FeatureExtractor\/MobilenetV1\/Conv2d_13_pointwise_2_Conv2d_5_3x3_s2_128\/Relu6:0",
      "weights" : {

      },
      "pad_mode" : 1,
      "Nx" : 1,
      "pad_value" : 0,
      "Ny" : 1,
      "n_parallel" : 1
    },
    {
      "name" : "BoxPredictor_5\/Reshape_1:0",
      "bottom" : "BoxPredictor_5\/ClassPredictor\/BiasAdd:0",
      "dst_n" : 0,
      "mode" : 1,
      "dst_seq" : 1,
      "dst_k" : 91,
      "weights" : {

      },
      "top" : "BoxPredictor_5\/Reshape_1:0",
      "dst_h" : 1,
      "dst_w" : 6,
      "type" : "reshape"
    },
    {
      "axis_h" : 1,
      "axis_w" : 2,
      "axis_k" : 0,
      "bottom" : "BoxPredictor_0\/Reshape_1:0",
      "axis_n" : 3,
      "axis_seq" : 4,
      "weights" : {

      },
      "top" : "BoxPredictor_0\/Reshape_1:0_swap_W_C_0",
      "type" : "transpose",
      "name" : "concat_1:0_0"
    },
    {
      "axis_h" : 1,
      "axis_w" : 2,
      "axis_k" : 0,
      "bottom" : "BoxPredictor_1\/Reshape_1:0",
      "axis_n" : 3,
      "axis_seq" : 4,
      "weights" : {

      },
      "top" : "BoxPredictor_1\/Reshape_1:0_swap_W_C_1",
      "type" : "transpose",
      "name" : "concat_1:0_1"
    },
    {
      "axis_h" : 1,
      "axis_w" : 2,
      "axis_k" : 0,
      "bottom" : "BoxPredictor_2\/Reshape_1:0",
      "axis_n" : 3,
      "axis_seq" : 4,
      "weights" : {

      },
      "top" : "BoxPredictor_2\/Reshape_1:0_swap_W_C_2",
      "type" : "transpose",
      "name" : "concat_1:0_2"
    },
    {
      "axis_h" : 1,
      "axis_w" : 2,
      "axis_k" : 0,
      "bottom" : "BoxPredictor_3\/Reshape_1:0",
      "axis_n" : 3,
      "axis_seq" : 4,
      "weights" : {

      },
      "top" : "BoxPredictor_3\/Reshape_1:0_swap_W_C_3",
      "type" : "transpose",
      "name" : "concat_1:0_3"
    },
    {
      "axis_h" : 1,
      "axis_w" : 2,
      "axis_k" : 0,
      "bottom" : "BoxPredictor_4\/Reshape_1:0",
      "axis_n" : 3,
      "axis_seq" : 4,
      "weights" : {

      },
      "top" : "BoxPredictor_4\/Reshape_1:0_swap_W_C_4",
      "type" : "transpose",
      "name" : "concat_1:0_4"
    },
    {
      "axis_h" : 1,
      "axis_w" : 2,
      "axis_k" : 0,
      "bottom" : "BoxPredictor_5\/Reshape_1:0",
      "axis_n" : 3,
      "axis_seq" : 4,
      "weights" : {

      },
      "top" : "BoxPredictor_5\/Reshape_1:0_swap_W_C_5",
      "type" : "transpose",
      "name" : "concat_1:0_5"
    },
    {
      "weights" : {

      },
      "top" : "concat_1:0_concat",
      "type" : "concat",
      "name" : "concat_1:0_concat",
      "bottom" : "BoxPredictor_0\/Reshape_1:0_swap_W_C_0,BoxPredictor_1\/Reshape_1:0_swap_W_C_1,BoxPredictor_2\/Reshape_1:0_swap_W_C_2,BoxPredictor_3\/Reshape_1:0_swap_W_C_3,BoxPredictor_4\/Reshape_1:0_swap_W_C_4,BoxPredictor_5\/Reshape_1:0_swap_W_C_5"
    },
    {
      "axis_h" : 1,
      "axis_w" : 2,
      "axis_k" : 0,
      "bottom" : "concat_1:0_concat",
      "axis_n" : 3,
      "axis_seq" : 4,
      "weights" : {

      },
      "top" : "concat_1__0",
      "type" : "transpose",
      "name" : "concat_1:0"
    },
    {
      "pad_r" : 0,
      "fused_relu" : 0,
      "fused_tanh" : 0,
      "pad_fill_mode" : 0,
      "pad_b" : 0,
      "pad_l" : 0,
      "top" : "BoxPredictor_5\/BoxEncodingPredictor\/BiasAdd:0",
      "blob_weights" : 195,
      "K" : 128,
      "blob_biases" : 193,
      "name" : "BoxPredictor_5\/BoxEncodingPredictor\/convolution:0",
      "has_batch_norm" : 0,
      "type" : "convolution",
      "n_groups" : 1,
      "pad_t" : 0,
      "has_biases" : 1,
      "C" : 24,
      "bottom" : "FeatureExtractor\/MobilenetV1\/Conv2d_13_pointwise_2_Conv2d_5_3x3_s2_128\/Relu6:0",
      "weights" : {

      },
      "pad_mode" : 1,
      "Nx" : 1,
      "pad_value" : 0,
      "Ny" : 1,
      "n_parallel" : 1
    },
    {
      "name" : "BoxPredictor_5\/Reshape:0",
      "bottom" : "BoxPredictor_5\/BoxEncodingPredictor\/BiasAdd:0",
      "dst_n" : 0,
      "mode" : 1,
      "dst_seq" : 1,
      "dst_k" : 4,
      "weights" : {

      },
      "top" : "BoxPredictor_5\/Reshape:0",
      "dst_h" : 1,
      "dst_w" : 6,
      "type" : "reshape"
    },
    {
      "axis_h" : 1,
      "axis_w" : 2,
      "axis_k" : 0,
      "bottom" : "BoxPredictor_0\/Reshape:0",
      "axis_n" : 3,
      "axis_seq" : 4,
      "weights" : {

      },
      "top" : "Squeeze:0_swap_W_C_0",
      "type" : "transpose",
      "name" : "concat:0_0"
    },
    {
      "axis_h" : 1,
      "axis_w" : 2,
      "axis_k" : 0,
      "bottom" : "BoxPredictor_1\/Reshape:0",
      "axis_n" : 3,
      "axis_seq" : 4,
      "weights" : {

      },
      "top" : "Squeeze_1:0_swap_W_C_1",
      "type" : "transpose",
      "name" : "concat:0_1"
    },
    {
      "axis_h" : 1,
      "axis_w" : 2,
      "axis_k" : 0,
      "bottom" : "BoxPredictor_2\/Reshape:0",
      "axis_n" : 3,
      "axis_seq" : 4,
      "weights" : {

      },
      "top" : "Squeeze_2:0_swap_W_C_2",
      "type" : "transpose",
      "name" : "concat:0_2"
    },
    {
      "axis_h" : 1,
      "axis_w" : 2,
      "axis_k" : 0,
      "bottom" : "BoxPredictor_3\/Reshape:0",
      "axis_n" : 3,
      "axis_seq" : 4,
      "weights" : {

      },
      "top" : "Squeeze_3:0_swap_W_C_3",
      "type" : "transpose",
      "name" : "concat:0_3"
    },
    {
      "axis_h" : 1,
      "axis_w" : 2,
      "axis_k" : 0,
      "bottom" : "BoxPredictor_4\/Reshape:0",
      "axis_n" : 3,
      "axis_seq" : 4,
      "weights" : {

      },
      "top" : "Squeeze_4:0_swap_W_C_4",
      "type" : "transpose",
      "name" : "concat:0_4"
    },
    {
      "axis_h" : 1,
      "axis_w" : 2,
      "axis_k" : 0,
      "bottom" : "BoxPredictor_5\/Reshape:0",
      "axis_n" : 3,
      "axis_seq" : 4,
      "weights" : {

      },
      "top" : "Squeeze_5:0_swap_W_C_5",
      "type" : "transpose",
      "name" : "concat:0_5"
    },
    {
      "weights" : {

      },
      "top" : "concat:0_concat",
      "type" : "concat",
      "name" : "concat:0_concat",
      "bottom" : "Squeeze:0_swap_W_C_0,Squeeze_1:0_swap_W_C_1,Squeeze_2:0_swap_W_C_2,Squeeze_3:0_swap_W_C_3,Squeeze_4:0_swap_W_C_4,Squeeze_5:0_swap_W_C_5"
    },
    {
      "axis_h" : 1,
      "axis_w" : 2,
      "axis_k" : 0,
      "bottom" : "concat:0_concat",
      "axis_n" : 3,
      "axis_seq" : 4,
      "weights" : {

      },
      "top" : "concat__0",
      "type" : "transpose",
      "name" : "concat:0"
    }
  ]
}